Model: "functional_3"
__________________________________________________________________________________________________
Layer (type)                    Output Shape         Param #     Connected to                     
==================================================================================================
image_input (InputLayer)        [(None, 416, 416, 3) 0                                            
__________________________________________________________________________________________________
conv_0 (Conv2D)                 (None, 416, 416, 32) 864         image_input[0][0]                
__________________________________________________________________________________________________
bnorm_0 (BatchNormalization)    (None, 416, 416, 32) 128         conv_0[0][0]                     
__________________________________________________________________________________________________
leaky_0 (LeakyReLU)             (None, 416, 416, 32) 0           bnorm_0[0][0]                    
__________________________________________________________________________________________________
zero_padding2d (ZeroPadding2D)  (None, 417, 417, 32) 0           leaky_0[0][0]                    
__________________________________________________________________________________________________
conv_1 (Conv2D)                 (None, 208, 208, 64) 18432       zero_padding2d[0][0]             
__________________________________________________________________________________________________
bnorm_1 (BatchNormalization)    (None, 208, 208, 64) 256         conv_1[0][0]                     
__________________________________________________________________________________________________
leaky_1 (LeakyReLU)             (None, 208, 208, 64) 0           bnorm_1[0][0]                    
__________________________________________________________________________________________________
conv_2 (Conv2D)                 (None, 208, 208, 32) 2048        leaky_1[0][0]                    
__________________________________________________________________________________________________
bnorm_2 (BatchNormalization)    (None, 208, 208, 32) 128         conv_2[0][0]                     
__________________________________________________________________________________________________
leaky_2 (LeakyReLU)             (None, 208, 208, 32) 0           bnorm_2[0][0]                    
__________________________________________________________________________________________________
conv_3 (Conv2D)                 (None, 208, 208, 64) 18432       leaky_2[0][0]                    
__________________________________________________________________________________________________
bnorm_3 (BatchNormalization)    (None, 208, 208, 64) 256         conv_3[0][0]                     
__________________________________________________________________________________________________
leaky_3 (LeakyReLU)             (None, 208, 208, 64) 0           bnorm_3[0][0]                    
__________________________________________________________________________________________________
add (Add)                       (None, 208, 208, 64) 0           leaky_1[0][0]                    
                                                                 leaky_3[0][0]                    
__________________________________________________________________________________________________
zero_padding2d_1 (ZeroPadding2D (None, 209, 209, 64) 0           add[0][0]                        
__________________________________________________________________________________________________
conv_5 (Conv2D)                 (None, 104, 104, 128 73728       zero_padding2d_1[0][0]           
__________________________________________________________________________________________________
bnorm_5 (BatchNormalization)    (None, 104, 104, 128 512         conv_5[0][0]                     
__________________________________________________________________________________________________
leaky_5 (LeakyReLU)             (None, 104, 104, 128 0           bnorm_5[0][0]                    
__________________________________________________________________________________________________
conv_6 (Conv2D)                 (None, 104, 104, 64) 8192        leaky_5[0][0]                    
__________________________________________________________________________________________________
bnorm_6 (BatchNormalization)    (None, 104, 104, 64) 256         conv_6[0][0]                     
__________________________________________________________________________________________________
leaky_6 (LeakyReLU)             (None, 104, 104, 64) 0           bnorm_6[0][0]                    
__________________________________________________________________________________________________
conv_7 (Conv2D)                 (None, 104, 104, 128 73728       leaky_6[0][0]                    
__________________________________________________________________________________________________
bnorm_7 (BatchNormalization)    (None, 104, 104, 128 512         conv_7[0][0]                     
…
__________________________________________________________________________________________________
add_2 (Add)                     (None, 104, 104, 128 0           add_1[0][0]                      
                                                                 leaky_10[0][0]                   
__________________________________________________________________________________________________
zero_padding2d_2 (ZeroPadding2D (None, 105, 105, 128 0           add_2[0][0]                      
__________________________________________________________________________________________________
conv_12 (Conv2D)                (None, 52, 52, 256)  294912      zero_padding2d_2[0][0]           
__________________________________________________________________________________________________
bnorm_12 (BatchNormalization)   (None, 52, 52, 256)  1024        conv_12[0][0]                    
__________________________________________________________________________________________________
leaky_12 (LeakyReLU)            (None, 52, 52, 256)  0           bnorm_12[0][0]                   
__________________________________________________________________________________________________
conv_13 (Conv2D)                (None, 52, 52, 128)  32768       leaky_12[0][0]                   
__________________________________________________________________________________________________
bnorm_13 (BatchNormalization)   (None, 52, 52, 128)  512         conv_13[0][0]                    
__________________________________________________________________________________________________
leaky_13 (LeakyReLU)            (None, 52, 52, 128)  0           bnorm_13[0][0]                   
__________________________________________________________________________________________________
conv_14 (Conv2D)                (None, 52, 52, 256)  294912      leaky_13[0][0]                   
__________________________________________________________________________________________________
bnorm_14 (BatchNormalization)   (None, 52, 52, 256)  1024        conv_14[0][0]                    
__________________________________________________________________________________________________
leaky_14 (LeakyReLU)            (None, 52, 52, 256)  0           bnorm_14[0][0]                   
__________________________________________________________________________________________________
add_3 (Add)                     (None, 52, 52, 256)  0           leaky_12[0][0]                   
                                                                 leaky_14[0][0]                   
__________________________________________________________________________________________________
conv_16 (Conv2D)                (None, 52, 52, 128)  32768       add_3[0][0]                      
__________________________________________________________________________________________________
bnorm_16 (BatchNormalization)   (None, 52, 52, 128)  512         conv_16[0][0]                    
__________________________________________________________________________________________________
leaky_16 (LeakyReLU)            (None, 52, 52, 128)  0           bnorm_16[0][0]                   
__________________________________________________________________________________________________
conv_17 (Conv2D)                (None, 52, 52, 256)  294912      leaky_16[0][0]                   
__________________________________________________________________________________________________
bnorm_17 (BatchNormalization)   (None, 52, 52, 256)  1024        conv_17[0][0]                    
__________________________________________________________________________________________________
leaky_17 (LeakyReLU)            (None, 52, 52, 256)  0           bnorm_17[0][0]                   
__________________________________________________________________________________________________
add_4 (Add)                     (None, 52, 52, 256)  0           add_3[0][0]                      
                                                                 leaky_17[0][0]                   
__________________________________________________________________________________________________
conv_19 (Conv2D)                (None, 52, 52, 128)  32768       add_4[0][0]                      
__________________________________________________________________________________________________
bnorm_19 (BatchNormalization)   (None, 52, 52, 128)  512         conv_19[0][0]                    
__________________________________________________________________________________________________
leaky_19 (LeakyReLU)            (None, 52, 52, 128)  0           bnorm_19[0][0]                   
__________________________________________________________________________________________________
conv_20 (Conv2D)                (None, 52, 52, 256)  294912      leaky_19[0][0]                   
__________________________________________________________________________________________________
bnorm_20 (BatchNormalization)   (None, 52, 52, 256)  1024        conv_20[0][0]                    
__________________________________________________________________________________________________
leaky_20 (LeakyReLU)            (None, 52, 52, 256)  0           bnorm_20[0][0]                   
__________________________________________________________________________________________________
add_5 (Add)                     (None, 52, 52, 256)  0           add_4[0][0]                      
                                                                 leaky_20[0][0]                   
__________________________________________________________________________________________________
conv_22 (Conv2D)                (None, 52, 52, 128)  32768       add_5[0][0]                      
__________________________________________________________________________________________________
bnorm_22 (BatchNormalization)   (None, 52, 52, 128)  512         conv_22[0][0]                    
__________________________________________________________________________________________________
leaky_22 (LeakyReLU)            (None, 52, 52, 128)  0           bnorm_22[0][0]                   
__________________________________________________________________________________________________
conv_23 (Conv2D)                (None, 52, 52, 256)  294912      leaky_22[0][0]                   
__________________________________________________________________________________________________
bnorm_23 (BatchNormalization)   (None, 52, 52, 256)  1024        conv_23[0][0]                    
__________________________________________________________________________________________________
leaky_23 (LeakyReLU)            (None, 52, 52, 256)  0           bnorm_23[0][0]                   
__________________________________________________________________________________________________
add_6 (Add)                     (None, 52, 52, 256)  0           add_5[0][0]                      
                                                                 leaky_23[0][0]                   
__________________________________________________________________________________________________
conv_25 (Conv2D)                (None, 52, 52, 128)  32768       add_6[0][0]                      
__________________________________________________________________________________________________
bnorm_25 (BatchNormalization)   (None, 52, 52, 128)  512         conv_25[0][0]                    
__________________________________________________________________________________________________
leaky_25 (LeakyReLU)            (None, 52, 52, 128)  0           bnorm_25[0][0]                   
__________________________________________________________________________________________________
conv_26 (Conv2D)                (None, 52, 52, 256)  294912      leaky_25[0][0]                   
__________________________________________________________________________________________________
bnorm_26 (BatchNormalization)   (None, 52, 52, 256)  1024        conv_26[0][0]                    
__________________________________________________________________________________________________
leaky_26 (LeakyReLU)            (None, 52, 52, 256)  0           bnorm_26[0][0]                   
__________________________________________________________________________________________________
add_7 (Add)                     (None, 52, 52, 256)  0           add_6[0][0]                      
                                                                 leaky_26[0][0]                   
__________________________________________________________________________________________________
conv_28 (Conv2D)                (None, 52, 52, 128)  32768       add_7[0][0]                      
__________________________________________________________________________________________________
bnorm_28 (BatchNormalization)   (None, 52, 52, 128)  512         conv_28[0][0]                    
__________________________________________________________________________________________________
leaky_28 (LeakyReLU)            (None, 52, 52, 128)  0           bnorm_28[0][0]                   
__________________________________________________________________________________________________
conv_29 (Conv2D)                (None, 52, 52, 256)  294912      leaky_28[0][0]                   
__________________________________________________________________________________________________
bnorm_29 (BatchNormalization)   (None, 52, 52, 256)  1024        conv_29[0][0]                    
__________________________________________________________________________________________________
leaky_29 (LeakyReLU)            (None, 52, 52, 256)  0           bnorm_29[0][0]                   
__________________________________________________________________________________________________
add_8 (Add)                     (None, 52, 52, 256)  0           add_7[0][0]                      
                                                                 leaky_29[0][0]                   
__________________________________________________________________________________________________
conv_31 (Conv2D)                (None, 52, 52, 128)  32768       add_8[0][0]                      
__________________________________________________________________________________________________
bnorm_31 (BatchNormalization)   (None, 52, 52, 128)  512         conv_31[0][0]                    
__________________________________________________________________________________________________
leaky_31 (LeakyReLU)            (None, 52, 52, 128)  0           bnorm_31[0][0]                   
__________________________________________________________________________________________________
conv_32 (Conv2D)                (None, 52, 52, 256)  294912      leaky_31[0][0]                   
__________________________________________________________________________________________________
bnorm_32 (BatchNormalization)   (None, 52, 52, 256)  1024        conv_32[0][0]                    
__________________________________________________________________________________________________
leaky_32 (LeakyReLU)            (None, 52, 52, 256)  0           bnorm_32[0][0]                   
__________________________________________________________________________________________________
add_9 (Add)                     (None, 52, 52, 256)  0           add_8[0][0]                      
                                                                 leaky_32[0][0]                   
__________________________________________________________________________________________________
conv_34 (Conv2D)                (None, 52, 52, 128)  32768       add_9[0][0]                      
__________________________________________________________________________________________________
bnorm_34 (BatchNormalization)   (None, 52, 52, 128)  512         conv_34[0][0]                    
__________________________________________________________________________________________________
leaky_34 (LeakyReLU)            (None, 52, 52, 128)  0           bnorm_34[0][0]                   
__________________________________________________________________________________________________
conv_35 (Conv2D)                (None, 52, 52, 256)  294912      leaky_34[0][0]                   
__________________________________________________________________________________________________
bnorm_35 (BatchNormalization)   (None, 52, 52, 256)  1024        conv_35[0][0]                    
__________________________________________________________________________________________________
leaky_35 (LeakyReLU)            (None, 52, 52, 256)  0           bnorm_35[0][0]                   
__________________________________________________________________________________________________
add_10 (Add)                    (None, 52, 52, 256)  0           add_9[0][0]                      
                                                                 leaky_35[0][0]                   
__________________________________________________________________________________________________
zero_padding2d_3 (ZeroPadding2D (None, 53, 53, 256)  0           add_10[0][0]                     
__________________________________________________________________________________________________
conv_37 (Conv2D)                (None, 26, 26, 512)  1179648     zero_padding2d_3[0][0]           
__________________________________________________________________________________________________
bnorm_37 (BatchNormalization)   (None, 26, 26, 512)  2048        conv_37[0][0]                    
__________________________________________________________________________________________________
leaky_37 (LeakyReLU)            (None, 26, 26, 512)  0           bnorm_37[0][0]                   
__________________________________________________________________________________________________
conv_38 (Conv2D)                (None, 26, 26, 256)  131072      leaky_37[0][0]                   
__________________________________________________________________________________________________
bnorm_38 (BatchNormalization)   (None, 26, 26, 256)  1024        conv_38[0][0]                    
__________________________________________________________________________________________________
leaky_38 (LeakyReLU)            (None, 26, 26, 256)  0           bnorm_38[0][0]                   
__________________________________________________________________________________________________
conv_39 (Conv2D)                (None, 26, 26, 512)  1179648     leaky_38[0][0]                   
__________________________________________________________________________________________________
bnorm_39 (BatchNormalization)   (None, 26, 26, 512)  2048        conv_39[0][0]                    
__________________________________________________________________________________________________
leaky_39 (LeakyReLU)            (None, 26, 26, 512)  0           bnorm_39[0][0]                   
__________________________________________________________________________________________________
add_11 (Add)                    (None, 26, 26, 512)  0           leaky_37[0][0]                   
                                                                 leaky_39[0][0]                   
__________________________________________________________________________________________________
conv_41 (Conv2D)                (None, 26, 26, 256)  131072      add_11[0][0]                     
__________________________________________________________________________________________________
bnorm_41 (BatchNormalization)   (None, 26, 26, 256)  1024        conv_41[0][0]                    
__________________________________________________________________________________________________
leaky_41 (LeakyReLU)            (None, 26, 26, 256)  0           bnorm_41[0][0]                   
__________________________________________________________________________________________________
conv_42 (Conv2D)                (None, 26, 26, 512)  1179648     leaky_41[0][0]                   
__________________________________________________________________________________________________
bnorm_42 (BatchNormalization)   (None, 26, 26, 512)  2048        conv_42[0][0]                    
__________________________________________________________________________________________________
leaky_42 (LeakyReLU)            (None, 26, 26, 512)  0           bnorm_42[0][0]                   
__________________________________________________________________________________________________
add_12 (Add)                    (None, 26, 26, 512)  0           add_11[0][0]                     
                                                                 leaky_42[0][0]                   
__________________________________________________________________________________________________
conv_44 (Conv2D)                (None, 26, 26, 256)  131072      add_12[0][0]                     
__________________________________________________________________________________________________
bnorm_44 (BatchNormalization)   (None, 26, 26, 256)  1024        conv_44[0][0]                    
__________________________________________________________________________________________________
leaky_44 (LeakyReLU)            (None, 26, 26, 256)  0           bnorm_44[0][0]                   
__________________________________________________________________________________________________
conv_45 (Conv2D)                (None, 26, 26, 512)  1179648     leaky_44[0][0]                   
__________________________________________________________________________________________________
bnorm_45 (BatchNormalization)   (None, 26, 26, 512)  2048        conv_45[0][0]                    
__________________________________________________________________________________________________
leaky_45 (LeakyReLU)            (None, 26, 26, 512)  0           bnorm_45[0][0]                   
__________________________________________________________________________________________________
add_13 (Add)                    (None, 26, 26, 512)  0           add_12[0][0]                     
                                                                 leaky_45[0][0]                   
__________________________________________________________________________________________________
conv_47 (Conv2D)                (None, 26, 26, 256)  131072      add_13[0][0]                     
__________________________________________________________________________________________________
bnorm_47 (BatchNormalization)   (None, 26, 26, 256)  1024        conv_47[0][0]                    
__________________________________________________________________________________________________
leaky_47 (LeakyReLU)            (None, 26, 26, 256)  0           bnorm_47[0][0]                   
__________________________________________________________________________________________________
conv_48 (Conv2D)                (None, 26, 26, 512)  1179648     leaky_47[0][0]                   
__________________________________________________________________________________________________
bnorm_48 (BatchNormalization)   (None, 26, 26, 512)  2048        conv_48[0][0]                    
__________________________________________________________________________________________________
leaky_48 (LeakyReLU)            (None, 26, 26, 512)  0           bnorm_48[0][0]                   
__________________________________________________________________________________________________
add_14 (Add)                    (None, 26, 26, 512)  0           add_13[0][0]                     
                                                                 leaky_48[0][0]                   
__________________________________________________________________________________________________
conv_50 (Conv2D)                (None, 26, 26, 256)  131072      add_14[0][0]                     
__________________________________________________________________________________________________
bnorm_50 (BatchNormalization)   (None, 26, 26, 256)  1024        conv_50[0][0]                    
__________________________________________________________________________________________________
leaky_50 (LeakyReLU)            (None, 26, 26, 256)  0           bnorm_50[0][0]                   
__________________________________________________________________________________________________
conv_51 (Conv2D)                (None, 26, 26, 512)  1179648     leaky_50[0][0]                   
__________________________________________________________________________________________________
bnorm_51 (BatchNormalization)   (None, 26, 26, 512)  2048        conv_51[0][0]                    
__________________________________________________________________________________________________
leaky_51 (LeakyReLU)            (None, 26, 26, 512)  0           bnorm_51[0][0]                   
__________________________________________________________________________________________________
add_15 (Add)                    (None, 26, 26, 512)  0           add_14[0][0]                     
                                                                 leaky_51[0][0]                   
__________________________________________________________________________________________________
conv_53 (Conv2D)                (None, 26, 26, 256)  131072      add_15[0][0]                     
__________________________________________________________________________________________________
bnorm_53 (BatchNormalization)   (None, 26, 26, 256)  1024        conv_53[0][0]                    
__________________________________________________________________________________________________
leaky_53 (LeakyReLU)            (None, 26, 26, 256)  0           bnorm_53[0][0]                   
__________________________________________________________________________________________________
conv_54 (Conv2D)                (None, 26, 26, 512)  1179648     leaky_53[0][0]                   
__________________________________________________________________________________________________
bnorm_54 (BatchNormalization)   (None, 26, 26, 512)  2048        conv_54[0][0]                    
__________________________________________________________________________________________________
leaky_54 (LeakyReLU)            (None, 26, 26, 512)  0           bnorm_54[0][0]                   
__________________________________________________________________________________________________
add_16 (Add)                    (None, 26, 26, 512)  0           add_15[0][0]                     
                                                                 leaky_54[0][0]                   
__________________________________________________________________________________________________
conv_56 (Conv2D)                (None, 26, 26, 256)  131072      add_16[0][0]                     
__________________________________________________________________________________________________
bnorm_56 (BatchNormalization)   (None, 26, 26, 256)  1024        conv_56[0][0]                    
__________________________________________________________________________________________________
leaky_56 (LeakyReLU)            (None, 26, 26, 256)  0           bnorm_56[0][0]                   
__________________________________________________________________________________________________
conv_57 (Conv2D)                (None, 26, 26, 512)  1179648     leaky_56[0][0]                   
__________________________________________________________________________________________________
bnorm_57 (BatchNormalization)   (None, 26, 26, 512)  2048        conv_57[0][0]                    
__________________________________________________________________________________________________
leaky_57 (LeakyReLU)            (None, 26, 26, 512)  0           bnorm_57[0][0]                   
__________________________________________________________________________________________________
add_17 (Add)                    (None, 26, 26, 512)  0           add_16[0][0]                     
                                                                 leaky_57[0][0]                   
__________________________________________________________________________________________________
conv_59 (Conv2D)                (None, 26, 26, 256)  131072      add_17[0][0]                     
__________________________________________________________________________________________________
bnorm_59 (BatchNormalization)   (None, 26, 26, 256)  1024        conv_59[0][0]                    
__________________________________________________________________________________________________
leaky_59 (LeakyReLU)            (None, 26, 26, 256)  0           bnorm_59[0][0]                   
__________________________________________________________________________________________________
conv_60 (Conv2D)                (None, 26, 26, 512)  1179648     leaky_59[0][0]                   
__________________________________________________________________________________________________
bnorm_60 (BatchNormalization)   (None, 26, 26, 512)  2048        conv_60[0][0]                    
__________________________________________________________________________________________________
leaky_60 (LeakyReLU)            (None, 26, 26, 512)  0           bnorm_60[0][0]                   
__________________________________________________________________________________________________
add_18 (Add)                    (None, 26, 26, 512)  0           add_17[0][0]                     
                                                                 leaky_60[0][0]                   
__________________________________________________________________________________________________
zero_padding2d_4 (ZeroPadding2D (None, 27, 27, 512)  0           add_18[0][0]                     
__________________________________________________________________________________________________
conv_62 (Conv2D)                (None, 13, 13, 1024) 4718592     zero_padding2d_4[0][0]           
__________________________________________________________________________________________________
bnorm_62 (BatchNormalization)   (None, 13, 13, 1024) 4096        conv_62[0][0]                    
__________________________________________________________________________________________________
leaky_62 (LeakyReLU)            (None, 13, 13, 1024) 0           bnorm_62[0][0]                   
__________________________________________________________________________________________________
conv_63 (Conv2D)                (None, 13, 13, 512)  524288      leaky_62[0][0]                   
__________________________________________________________________________________________________
bnorm_63 (BatchNormalization)   (None, 13, 13, 512)  2048        conv_63[0][0]                    
__________________________________________________________________________________________________
leaky_63 (LeakyReLU)            (None, 13, 13, 512)  0           bnorm_63[0][0]                   
__________________________________________________________________________________________________
conv_64 (Conv2D)                (None, 13, 13, 1024) 4718592     leaky_63[0][0]                   
__________________________________________________________________________________________________
bnorm_64 (BatchNormalization)   (None, 13, 13, 1024) 4096        conv_64[0][0]                    
__________________________________________________________________________________________________
leaky_64 (LeakyReLU)            (None, 13, 13, 1024) 0           bnorm_64[0][0]                   
__________________________________________________________________________________________________
add_19 (Add)                    (None, 13, 13, 1024) 0           leaky_62[0][0]                   
                                                                 leaky_64[0][0]                   
__________________________________________________________________________________________________
conv_66 (Conv2D)                (None, 13, 13, 512)  524288      add_19[0][0]                     
__________________________________________________________________________________________________
bnorm_66 (BatchNormalization)   (None, 13, 13, 512)  2048        conv_66[0][0]                    
__________________________________________________________________________________________________
leaky_66 (LeakyReLU)            (None, 13, 13, 512)  0           bnorm_66[0][0]                   
__________________________________________________________________________________________________
conv_67 (Conv2D)                (None, 13, 13, 1024) 4718592     leaky_66[0][0]                   
__________________________________________________________________________________________________
bnorm_67 (BatchNormalization)   (None, 13, 13, 1024) 4096        conv_67[0][0]                    
__________________________________________________________________________________________________
leaky_67 (LeakyReLU)            (None, 13, 13, 1024) 0           bnorm_67[0][0]                   
__________________________________________________________________________________________________
add_20 (Add)                    (None, 13, 13, 1024) 0           add_19[0][0]                     
                                                                 leaky_67[0][0]                   
__________________________________________________________________________________________________
conv_69 (Conv2D)                (None, 13, 13, 512)  524288      add_20[0][0]                     
__________________________________________________________________________________________________
bnorm_69 (BatchNormalization)   (None, 13, 13, 512)  2048        conv_69[0][0]                    
__________________________________________________________________________________________________
leaky_69 (LeakyReLU)            (None, 13, 13, 512)  0           bnorm_69[0][0]                   
__________________________________________________________________________________________________
conv_70 (Conv2D)                (None, 13, 13, 1024) 4718592     leaky_69[0][0]                   
__________________________________________________________________________________________________
bnorm_70 (BatchNormalization)   (None, 13, 13, 1024) 4096        conv_70[0][0]                    
__________________________________________________________________________________________________
leaky_70 (LeakyReLU)            (None, 13, 13, 1024) 0           bnorm_70[0][0]                   
__________________________________________________________________________________________________
add_21 (Add)                    (None, 13, 13, 1024) 0           add_20[0][0]                     
                                                                 leaky_70[0][0]                   
__________________________________________________________________________________________________
conv_72 (Conv2D)                (None, 13, 13, 512)  524288      add_21[0][0]                     
__________________________________________________________________________________________________
bnorm_72 (BatchNormalization)   (None, 13, 13, 512)  2048        conv_72[0][0]                    
__________________________________________________________________________________________________
leaky_72 (LeakyReLU)            (None, 13, 13, 512)  0           bnorm_72[0][0]                   
__________________________________________________________________________________________________
conv_73 (Conv2D)                (None, 13, 13, 1024) 4718592     leaky_72[0][0]                   
__________________________________________________________________________________________________
bnorm_73 (BatchNormalization)   (None, 13, 13, 1024) 4096        conv_73[0][0]                    
__________________________________________________________________________________________________
leaky_73 (LeakyReLU)            (None, 13, 13, 1024) 0           bnorm_73[0][0]                   
__________________________________________________________________________________________________
add_22 (Add)                    (None, 13, 13, 1024) 0           add_21[0][0]                     
                                                                 leaky_73[0][0]                   
__________________________________________________________________________________________________
conv_75 (Conv2D)                (None, 13, 13, 512)  524288      add_22[0][0]                     
__________________________________________________________________________________________________
bnorm_75 (BatchNormalization)   (None, 13, 13, 512)  2048        conv_75[0][0]                    
__________________________________________________________________________________________________
leaky_75 (LeakyReLU)            (None, 13, 13, 512)  0           bnorm_75[0][0]                   
__________________________________________________________________________________________________
conv_76 (Conv2D)                (None, 13, 13, 1024) 4718592     leaky_75[0][0]                   
__________________________________________________________________________________________________
bnorm_76 (BatchNormalization)   (None, 13, 13, 1024) 4096        conv_76[0][0]                    
__________________________________________________________________________________________________
leaky_76 (LeakyReLU)            (None, 13, 13, 1024) 0           bnorm_76[0][0]                   
__________________________________________________________________________________________________
conv_77 (Conv2D)                (None, 13, 13, 512)  524288      leaky_76[0][0]                   
__________________________________________________________________________________________________
bnorm_77 (BatchNormalization)   (None, 13, 13, 512)  2048        conv_77[0][0]                    
__________________________________________________________________________________________________
leaky_77 (LeakyReLU)            (None, 13, 13, 512)  0           bnorm_77[0][0]                   
__________________________________________________________________________________________________
conv_78 (Conv2D)                (None, 13, 13, 1024) 4718592     leaky_77[0][0]                   
__________________________________________________________________________________________________
bnorm_78 (BatchNormalization)   (None, 13, 13, 1024) 4096        conv_78[0][0]                    
__________________________________________________________________________________________________
leaky_78 (LeakyReLU)            (None, 13, 13, 1024) 0           bnorm_78[0][0]                   
__________________________________________________________________________________________________
conv_79 (Conv2D)                (None, 13, 13, 512)  524288      leaky_78[0][0]                   
__________________________________________________________________________________________________
bnorm_79 (BatchNormalization)   (None, 13, 13, 512)  2048        conv_79[0][0]                    
__________________________________________________________________________________________________
leaky_79 (LeakyReLU)            (None, 13, 13, 512)  0           bnorm_79[0][0]                   
__________________________________________________________________________________________________
conv_84 (Conv2D)                (None, 13, 13, 256)  131072      leaky_79[0][0]                   
__________________________________________________________________________________________________
bnorm_84 (BatchNormalization)   (None, 13, 13, 256)  1024        conv_84[0][0]                    
__________________________________________________________________________________________________
leaky_84 (LeakyReLU)            (None, 13, 13, 256)  0           bnorm_84[0][0]                   
__________________________________________________________________________________________________
up_sampling2d (UpSampling2D)    (None, 26, 26, 256)  0           leaky_84[0][0]                   
__________________________________________________________________________________________________
concatenate (Concatenate)       (None, 26, 26, 768)  0           up_sampling2d[0][0]              
                                                                 add_18[0][0]                     
__________________________________________________________________________________________________
conv_87 (Conv2D)                (None, 26, 26, 256)  196608      concatenate[0][0]                
__________________________________________________________________________________________________
bnorm_87 (BatchNormalization)   (None, 26, 26, 256)  1024        conv_87[0][0]                    
__________________________________________________________________________________________________
leaky_87 (LeakyReLU)            (None, 26, 26, 256)  0           bnorm_87[0][0]                   
__________________________________________________________________________________________________
conv_88 (Conv2D)                (None, 26, 26, 512)  1179648     leaky_87[0][0]                   
__________________________________________________________________________________________________
bnorm_88 (BatchNormalization)   (None, 26, 26, 512)  2048        conv_88[0][0]                    
__________________________________________________________________________________________________
leaky_88 (LeakyReLU)            (None, 26, 26, 512)  0           bnorm_88[0][0]                   
__________________________________________________________________________________________________
conv_89 (Conv2D)                (None, 26, 26, 256)  131072      leaky_88[0][0]                   
__________________________________________________________________________________________________
bnorm_89 (BatchNormalization)   (None, 26, 26, 256)  1024        conv_89[0][0]                    
__________________________________________________________________________________________________
leaky_89 (LeakyReLU)            (None, 26, 26, 256)  0           bnorm_89[0][0]                   
__________________________________________________________________________________________________
conv_90 (Conv2D)                (None, 26, 26, 512)  1179648     leaky_89[0][0]                   
__________________________________________________________________________________________________
bnorm_90 (BatchNormalization)   (None, 26, 26, 512)  2048        conv_90[0][0]                    
__________________________________________________________________________________________________
leaky_90 (LeakyReLU)            (None, 26, 26, 512)  0           bnorm_90[0][0]                   
__________________________________________________________________________________________________
conv_91 (Conv2D)                (None, 26, 26, 256)  131072      leaky_90[0][0]                   
__________________________________________________________________________________________________
bnorm_91 (BatchNormalization)   (None, 26, 26, 256)  1024        conv_91[0][0]                    
__________________________________________________________________________________________________
leaky_91 (LeakyReLU)            (None, 26, 26, 256)  0           bnorm_91[0][0]                   
__________________________________________________________________________________________________
conv_96 (Conv2D)                (None, 26, 26, 128)  32768       leaky_91[0][0]                   
__________________________________________________________________________________________________
bnorm_96 (BatchNormalization)   (None, 26, 26, 128)  512         conv_96[0][0]                    
__________________________________________________________________________________________________
leaky_96 (LeakyReLU)            (None, 26, 26, 128)  0           bnorm_96[0][0]                   
__________________________________________________________________________________________________
up_sampling2d_1 (UpSampling2D)  (None, 52, 52, 128)  0           leaky_96[0][0]                   
__________________________________________________________________________________________________
concatenate_1 (Concatenate)     (None, 52, 52, 384)  0           up_sampling2d_1[0][0]            
                                                                 add_10[0][0]                     
__________________________________________________________________________________________________
conv_99 (Conv2D)                (None, 52, 52, 128)  49152       concatenate_1[0][0]              
__________________________________________________________________________________________________
bnorm_99 (BatchNormalization)   (None, 52, 52, 128)  512         conv_99[0][0]                    
__________________________________________________________________________________________________
leaky_99 (LeakyReLU)            (None, 52, 52, 128)  0           bnorm_99[0][0]                   
__________________________________________________________________________________________________
conv_100 (Conv2D)               (None, 52, 52, 256)  294912      leaky_99[0][0]                   
__________________________________________________________________________________________________
bnorm_100 (BatchNormalization)  (None, 52, 52, 256)  1024        conv_100[0][0]                   
__________________________________________________________________________________________________
leaky_100 (LeakyReLU)           (None, 52, 52, 256)  0           bnorm_100[0][0]                  
__________________________________________________________________________________________________
conv_101 (Conv2D)               (None, 52, 52, 128)  32768       leaky_100[0][0]                  
__________________________________________________________________________________________________
bnorm_101 (BatchNormalization)  (None, 52, 52, 128)  512         conv_101[0][0]                   
__________________________________________________________________________________________________
leaky_101 (LeakyReLU)           (None, 52, 52, 128)  0           bnorm_101[0][0]                  
__________________________________________________________________________________________________
conv_102 (Conv2D)               (None, 52, 52, 256)  294912      leaky_101[0][0]                  
__________________________________________________________________________________________________
bnorm_102 (BatchNormalization)  (None, 52, 52, 256)  1024        conv_102[0][0]                   
__________________________________________________________________________________________________
leaky_102 (LeakyReLU)           (None, 52, 52, 256)  0           bnorm_102[0][0]                  
__________________________________________________________________________________________________
conv_103 (Conv2D)               (None, 52, 52, 128)  32768       leaky_102[0][0]                  
__________________________________________________________________________________________________
bnorm_103 (BatchNormalization)  (None, 52, 52, 128)  512         conv_103[0][0]                   
__________________________________________________________________________________________________
leaky_103 (LeakyReLU)           (None, 52, 52, 128)  0           bnorm_103[0][0]                  
__________________________________________________________________________________________________
conv_80 (Conv2D)                (None, 13, 13, 1024) 4718592     leaky_79[0][0]                   
__________________________________________________________________________________________________
conv_92 (Conv2D)                (None, 26, 26, 512)  1179648     leaky_91[0][0]                   
__________________________________________________________________________________________________
conv_104 (Conv2D)               (None, 52, 52, 256)  294912      leaky_103[0][0]                  
__________________________________________________________________________________________________
bnorm_80 (BatchNormalization)   (None, 13, 13, 1024) 4096        conv_80[0][0]                    
__________________________________________________________________________________________________
bnorm_92 (BatchNormalization)   (None, 26, 26, 512)  2048        conv_92[0][0]                    
__________________________________________________________________________________________________
bnorm_104 (BatchNormalization)  (None, 52, 52, 256)  1024        conv_104[0][0]                   
__________________________________________________________________________________________________
leaky_80 (LeakyReLU)            (None, 13, 13, 1024) 0           bnorm_80[0][0]                   
__________________________________________________________________________________________________
leaky_92 (LeakyReLU)            (None, 26, 26, 512)  0           bnorm_92[0][0]                   
__________________________________________________________________________________________________
leaky_104 (LeakyReLU)           (None, 52, 52, 256)  0           bnorm_104[0][0]                  
__________________________________________________________________________________________________
conv_81 (Conv2D)                (None, 13, 13, 48)   49200       leaky_80[0][0]                   
__________________________________________________________________________________________________
conv_93 (Conv2D)                (None, 26, 26, 48)   24624       leaky_92[0][0]                   
__________________________________________________________________________________________________
conv_105 (Conv2D)               (None, 52, 52, 48)   12336       leaky_104[0][0]                  
==================================================================================================
Total params: 61,630,192
Trainable params: 61,524,976
Non-trainable params: 105,216
__________________________________________________________________________________________________
None














=====================================
>>>> Train model <<<<
Model: "functional_1"
__________________________________________________________________________________________________
Layer (type)                    Output Shape         Param #     Connected to                     
==================================================================================================
image_input (InputLayer)        [(None, 416, 416, 3) 0                                            
__________________________________________________________________________________________________
conv_0 (Conv2D)                 (None, 416, 416, 32) 864         image_input[0][0]                
__________________________________________________________________________________________________
bnorm_0 (BatchNormalization)    (None, 416, 416, 32) 128         conv_0[0][0]                     
__________________________________________________________________________________________________
leaky_0 (LeakyReLU)             (None, 416, 416, 32) 0           bnorm_0[0][0]                    
__________________________________________________________________________________________________
zero_padding2d (ZeroPadding2D)  (None, 417, 417, 32) 0           leaky_0[0][0]                    
__________________________________________________________________________________________________
conv_1 (Conv2D)                 (None, 208, 208, 64) 18432       zero_padding2d[0][0]             
__________________________________________________________________________________________________
bnorm_1 (BatchNormalization)    (None, 208, 208, 64) 256         conv_1[0][0]                     
__________________________________________________________________________________________________
leaky_1 (LeakyReLU)             (None, 208, 208, 64) 0           bnorm_1[0][0]                    
__________________________________________________________________________________________________
conv_2 (Conv2D)                 (None, 208, 208, 32) 2048        leaky_1[0][0]                    
__________________________________________________________________________________________________
bnorm_2 (BatchNormalization)    (None, 208, 208, 32) 128         conv_2[0][0]                     
__________________________________________________________________________________________________
leaky_2 (LeakyReLU)             (None, 208, 208, 32) 0           bnorm_2[0][0]                    
__________________________________________________________________________________________________
conv_3 (Conv2D)                 (None, 208, 208, 64) 18432       leaky_2[0][0]                    
__________________________________________________________________________________________________
bnorm_3 (BatchNormalization)    (None, 208, 208, 64) 256         conv_3[0][0]                     
__________________________________________________________________________________________________
leaky_3 (LeakyReLU)             (None, 208, 208, 64) 0           bnorm_3[0][0]                    
__________________________________________________________________________________________________
add (Add)                       (None, 208, 208, 64) 0           leaky_1[0][0]                    
                                                                 leaky_3[0][0]                    
__________________________________________________________________________________________________
zero_padding2d_1 (ZeroPadding2D (None, 209, 209, 64) 0           add[0][0]                        
__________________________________________________________________________________________________
conv_5 (Conv2D)                 (None, 104, 104, 128 73728       zero_padding2d_1[0][0]           
__________________________________________________________________________________________________
bnorm_5 (BatchNormalization)    (None, 104, 104, 128 512         conv_5[0][0]                     
__________________________________________________________________________________________________
leaky_5 (LeakyReLU)             (None, 104, 104, 128 0           bnorm_5[0][0]                    
__________________________________________________________________________________________________
conv_6 (Conv2D)                 (None, 104, 104, 64) 8192        leaky_5[0][0]                    
__________________________________________________________________________________________________
bnorm_6 (BatchNormalization)    (None, 104, 104, 64) 256         conv_6[0][0]                     
__________________________________________________________________________________________________
leaky_6 (LeakyReLU)             (None, 104, 104, 64) 0           bnorm_6[0][0]                    
__________________________________________________________________________________________________
conv_7 (Conv2D)                 (None, 104, 104, 128 73728       leaky_6[0][0]                    
__________________________________________________________________________________________________
bnorm_7 (BatchNormalization)    (None, 104, 104, 128 512         conv_7[0][0]                     
…
__________________________________________________________________________________________________
add_2 (Add)                     (None, 104, 104, 128 0           add_1[0][0]                      
                                                                 leaky_10[0][0]                   
__________________________________________________________________________________________________
zero_padding2d_2 (ZeroPadding2D (None, 105, 105, 128 0           add_2[0][0]                      
__________________________________________________________________________________________________
conv_12 (Conv2D)                (None, 52, 52, 256)  294912      zero_padding2d_2[0][0]           
__________________________________________________________________________________________________
bnorm_12 (BatchNormalization)   (None, 52, 52, 256)  1024        conv_12[0][0]                    
__________________________________________________________________________________________________
leaky_12 (LeakyReLU)            (None, 52, 52, 256)  0           bnorm_12[0][0]                   
__________________________________________________________________________________________________
conv_13 (Conv2D)                (None, 52, 52, 128)  32768       leaky_12[0][0]                   
__________________________________________________________________________________________________
bnorm_13 (BatchNormalization)   (None, 52, 52, 128)  512         conv_13[0][0]                    
__________________________________________________________________________________________________
leaky_13 (LeakyReLU)            (None, 52, 52, 128)  0           bnorm_13[0][0]                   
__________________________________________________________________________________________________
conv_14 (Conv2D)                (None, 52, 52, 256)  294912      leaky_13[0][0]                   
__________________________________________________________________________________________________
bnorm_14 (BatchNormalization)   (None, 52, 52, 256)  1024        conv_14[0][0]                    
__________________________________________________________________________________________________
leaky_14 (LeakyReLU)            (None, 52, 52, 256)  0           bnorm_14[0][0]                   
__________________________________________________________________________________________________
add_3 (Add)                     (None, 52, 52, 256)  0           leaky_12[0][0]                   
                                                                 leaky_14[0][0]                   
__________________________________________________________________________________________________
conv_16 (Conv2D)                (None, 52, 52, 128)  32768       add_3[0][0]                      
__________________________________________________________________________________________________
bnorm_16 (BatchNormalization)   (None, 52, 52, 128)  512         conv_16[0][0]                    
__________________________________________________________________________________________________
leaky_16 (LeakyReLU)            (None, 52, 52, 128)  0           bnorm_16[0][0]                   
__________________________________________________________________________________________________
conv_17 (Conv2D)                (None, 52, 52, 256)  294912      leaky_16[0][0]                   
__________________________________________________________________________________________________
bnorm_17 (BatchNormalization)   (None, 52, 52, 256)  1024        conv_17[0][0]                    
__________________________________________________________________________________________________
leaky_17 (LeakyReLU)            (None, 52, 52, 256)  0           bnorm_17[0][0]                   
__________________________________________________________________________________________________
add_4 (Add)                     (None, 52, 52, 256)  0           add_3[0][0]                      
                                                                 leaky_17[0][0]                   
__________________________________________________________________________________________________
conv_19 (Conv2D)                (None, 52, 52, 128)  32768       add_4[0][0]                      
__________________________________________________________________________________________________
bnorm_19 (BatchNormalization)   (None, 52, 52, 128)  512         conv_19[0][0]                    
__________________________________________________________________________________________________
leaky_19 (LeakyReLU)            (None, 52, 52, 128)  0           bnorm_19[0][0]                   
__________________________________________________________________________________________________
conv_20 (Conv2D)                (None, 52, 52, 256)  294912      leaky_19[0][0]                   
__________________________________________________________________________________________________
bnorm_20 (BatchNormalization)   (None, 52, 52, 256)  1024        conv_20[0][0]                    
__________________________________________________________________________________________________
leaky_20 (LeakyReLU)            (None, 52, 52, 256)  0           bnorm_20[0][0]                   
__________________________________________________________________________________________________
add_5 (Add)                     (None, 52, 52, 256)  0           add_4[0][0]                      
                                                                 leaky_20[0][0]                   
__________________________________________________________________________________________________
conv_22 (Conv2D)                (None, 52, 52, 128)  32768       add_5[0][0]                      
__________________________________________________________________________________________________
bnorm_22 (BatchNormalization)   (None, 52, 52, 128)  512         conv_22[0][0]                    
__________________________________________________________________________________________________
leaky_22 (LeakyReLU)            (None, 52, 52, 128)  0           bnorm_22[0][0]                   
__________________________________________________________________________________________________
conv_23 (Conv2D)                (None, 52, 52, 256)  294912      leaky_22[0][0]                   
__________________________________________________________________________________________________
bnorm_23 (BatchNormalization)   (None, 52, 52, 256)  1024        conv_23[0][0]                    
__________________________________________________________________________________________________
leaky_23 (LeakyReLU)            (None, 52, 52, 256)  0           bnorm_23[0][0]                   
__________________________________________________________________________________________________
add_6 (Add)                     (None, 52, 52, 256)  0           add_5[0][0]                      
                                                                 leaky_23[0][0]                   
__________________________________________________________________________________________________
conv_25 (Conv2D)                (None, 52, 52, 128)  32768       add_6[0][0]                      
__________________________________________________________________________________________________
bnorm_25 (BatchNormalization)   (None, 52, 52, 128)  512         conv_25[0][0]                    
__________________________________________________________________________________________________
leaky_25 (LeakyReLU)            (None, 52, 52, 128)  0           bnorm_25[0][0]                   
__________________________________________________________________________________________________
conv_26 (Conv2D)                (None, 52, 52, 256)  294912      leaky_25[0][0]                   
__________________________________________________________________________________________________
bnorm_26 (BatchNormalization)   (None, 52, 52, 256)  1024        conv_26[0][0]                    
__________________________________________________________________________________________________
leaky_26 (LeakyReLU)            (None, 52, 52, 256)  0           bnorm_26[0][0]                   
__________________________________________________________________________________________________
add_7 (Add)                     (None, 52, 52, 256)  0           add_6[0][0]                      
                                                                 leaky_26[0][0]                   
__________________________________________________________________________________________________
conv_28 (Conv2D)                (None, 52, 52, 128)  32768       add_7[0][0]                      
__________________________________________________________________________________________________
bnorm_28 (BatchNormalization)   (None, 52, 52, 128)  512         conv_28[0][0]                    
__________________________________________________________________________________________________
leaky_28 (LeakyReLU)            (None, 52, 52, 128)  0           bnorm_28[0][0]                   
__________________________________________________________________________________________________
conv_29 (Conv2D)                (None, 52, 52, 256)  294912      leaky_28[0][0]                   
__________________________________________________________________________________________________
bnorm_29 (BatchNormalization)   (None, 52, 52, 256)  1024        conv_29[0][0]                    
__________________________________________________________________________________________________
leaky_29 (LeakyReLU)            (None, 52, 52, 256)  0           bnorm_29[0][0]                   
__________________________________________________________________________________________________
add_8 (Add)                     (None, 52, 52, 256)  0           add_7[0][0]                      
                                                                 leaky_29[0][0]                   
__________________________________________________________________________________________________
conv_31 (Conv2D)                (None, 52, 52, 128)  32768       add_8[0][0]                      
__________________________________________________________________________________________________
bnorm_31 (BatchNormalization)   (None, 52, 52, 128)  512         conv_31[0][0]                    
__________________________________________________________________________________________________
leaky_31 (LeakyReLU)            (None, 52, 52, 128)  0           bnorm_31[0][0]                   
__________________________________________________________________________________________________
conv_32 (Conv2D)                (None, 52, 52, 256)  294912      leaky_31[0][0]                   
__________________________________________________________________________________________________
bnorm_32 (BatchNormalization)   (None, 52, 52, 256)  1024        conv_32[0][0]                    
__________________________________________________________________________________________________
leaky_32 (LeakyReLU)            (None, 52, 52, 256)  0           bnorm_32[0][0]                   
__________________________________________________________________________________________________
add_9 (Add)                     (None, 52, 52, 256)  0           add_8[0][0]                      
                                                                 leaky_32[0][0]                   
__________________________________________________________________________________________________
conv_34 (Conv2D)                (None, 52, 52, 128)  32768       add_9[0][0]                      
__________________________________________________________________________________________________
bnorm_34 (BatchNormalization)   (None, 52, 52, 128)  512         conv_34[0][0]                    
__________________________________________________________________________________________________
leaky_34 (LeakyReLU)            (None, 52, 52, 128)  0           bnorm_34[0][0]                   
__________________________________________________________________________________________________
conv_35 (Conv2D)                (None, 52, 52, 256)  294912      leaky_34[0][0]                   
__________________________________________________________________________________________________
bnorm_35 (BatchNormalization)   (None, 52, 52, 256)  1024        conv_35[0][0]                    
__________________________________________________________________________________________________
leaky_35 (LeakyReLU)            (None, 52, 52, 256)  0           bnorm_35[0][0]                   
__________________________________________________________________________________________________
add_10 (Add)                    (None, 52, 52, 256)  0           add_9[0][0]                      
                                                                 leaky_35[0][0]                   
__________________________________________________________________________________________________
zero_padding2d_3 (ZeroPadding2D (None, 53, 53, 256)  0           add_10[0][0]                     
__________________________________________________________________________________________________
conv_37 (Conv2D)                (None, 26, 26, 512)  1179648     zero_padding2d_3[0][0]           
__________________________________________________________________________________________________
bnorm_37 (BatchNormalization)   (None, 26, 26, 512)  2048        conv_37[0][0]                    
__________________________________________________________________________________________________
leaky_37 (LeakyReLU)            (None, 26, 26, 512)  0           bnorm_37[0][0]                   
__________________________________________________________________________________________________
conv_38 (Conv2D)                (None, 26, 26, 256)  131072      leaky_37[0][0]                   
__________________________________________________________________________________________________
bnorm_38 (BatchNormalization)   (None, 26, 26, 256)  1024        conv_38[0][0]                    
__________________________________________________________________________________________________
leaky_38 (LeakyReLU)            (None, 26, 26, 256)  0           bnorm_38[0][0]                   
__________________________________________________________________________________________________
conv_39 (Conv2D)                (None, 26, 26, 512)  1179648     leaky_38[0][0]                   
__________________________________________________________________________________________________
bnorm_39 (BatchNormalization)   (None, 26, 26, 512)  2048        conv_39[0][0]                    
__________________________________________________________________________________________________
leaky_39 (LeakyReLU)            (None, 26, 26, 512)  0           bnorm_39[0][0]                   
__________________________________________________________________________________________________
add_11 (Add)                    (None, 26, 26, 512)  0           leaky_37[0][0]                   
                                                                 leaky_39[0][0]                   
__________________________________________________________________________________________________
conv_41 (Conv2D)                (None, 26, 26, 256)  131072      add_11[0][0]                     
__________________________________________________________________________________________________
bnorm_41 (BatchNormalization)   (None, 26, 26, 256)  1024        conv_41[0][0]                    
__________________________________________________________________________________________________
leaky_41 (LeakyReLU)            (None, 26, 26, 256)  0           bnorm_41[0][0]                   
__________________________________________________________________________________________________
conv_42 (Conv2D)                (None, 26, 26, 512)  1179648     leaky_41[0][0]                   
__________________________________________________________________________________________________
bnorm_42 (BatchNormalization)   (None, 26, 26, 512)  2048        conv_42[0][0]                    
__________________________________________________________________________________________________
leaky_42 (LeakyReLU)            (None, 26, 26, 512)  0           bnorm_42[0][0]                   
__________________________________________________________________________________________________
add_12 (Add)                    (None, 26, 26, 512)  0           add_11[0][0]                     
                                                                 leaky_42[0][0]                   
__________________________________________________________________________________________________
conv_44 (Conv2D)                (None, 26, 26, 256)  131072      add_12[0][0]                     
__________________________________________________________________________________________________
bnorm_44 (BatchNormalization)   (None, 26, 26, 256)  1024        conv_44[0][0]                    
__________________________________________________________________________________________________
leaky_44 (LeakyReLU)            (None, 26, 26, 256)  0           bnorm_44[0][0]                   
__________________________________________________________________________________________________
conv_45 (Conv2D)                (None, 26, 26, 512)  1179648     leaky_44[0][0]                   
__________________________________________________________________________________________________
bnorm_45 (BatchNormalization)   (None, 26, 26, 512)  2048        conv_45[0][0]                    
__________________________________________________________________________________________________
leaky_45 (LeakyReLU)            (None, 26, 26, 512)  0           bnorm_45[0][0]                   
__________________________________________________________________________________________________
add_13 (Add)                    (None, 26, 26, 512)  0           add_12[0][0]                     
                                                                 leaky_45[0][0]                   
__________________________________________________________________________________________________
conv_47 (Conv2D)                (None, 26, 26, 256)  131072      add_13[0][0]                     
__________________________________________________________________________________________________
bnorm_47 (BatchNormalization)   (None, 26, 26, 256)  1024        conv_47[0][0]                    
__________________________________________________________________________________________________
leaky_47 (LeakyReLU)            (None, 26, 26, 256)  0           bnorm_47[0][0]                   
__________________________________________________________________________________________________
conv_48 (Conv2D)                (None, 26, 26, 512)  1179648     leaky_47[0][0]                   
__________________________________________________________________________________________________
bnorm_48 (BatchNormalization)   (None, 26, 26, 512)  2048        conv_48[0][0]                    
__________________________________________________________________________________________________
leaky_48 (LeakyReLU)            (None, 26, 26, 512)  0           bnorm_48[0][0]                   
__________________________________________________________________________________________________
add_14 (Add)                    (None, 26, 26, 512)  0           add_13[0][0]                     
                                                                 leaky_48[0][0]                   
__________________________________________________________________________________________________
conv_50 (Conv2D)                (None, 26, 26, 256)  131072      add_14[0][0]                     
__________________________________________________________________________________________________
bnorm_50 (BatchNormalization)   (None, 26, 26, 256)  1024        conv_50[0][0]                    
__________________________________________________________________________________________________
leaky_50 (LeakyReLU)            (None, 26, 26, 256)  0           bnorm_50[0][0]                   
__________________________________________________________________________________________________
conv_51 (Conv2D)                (None, 26, 26, 512)  1179648     leaky_50[0][0]                   
__________________________________________________________________________________________________
bnorm_51 (BatchNormalization)   (None, 26, 26, 512)  2048        conv_51[0][0]                    
__________________________________________________________________________________________________
leaky_51 (LeakyReLU)            (None, 26, 26, 512)  0           bnorm_51[0][0]                   
__________________________________________________________________________________________________
add_15 (Add)                    (None, 26, 26, 512)  0           add_14[0][0]                     
                                                                 leaky_51[0][0]                   
__________________________________________________________________________________________________
conv_53 (Conv2D)                (None, 26, 26, 256)  131072      add_15[0][0]                     
__________________________________________________________________________________________________
bnorm_53 (BatchNormalization)   (None, 26, 26, 256)  1024        conv_53[0][0]                    
__________________________________________________________________________________________________
leaky_53 (LeakyReLU)            (None, 26, 26, 256)  0           bnorm_53[0][0]                   
__________________________________________________________________________________________________
conv_54 (Conv2D)                (None, 26, 26, 512)  1179648     leaky_53[0][0]                   
__________________________________________________________________________________________________
bnorm_54 (BatchNormalization)   (None, 26, 26, 512)  2048        conv_54[0][0]                    
__________________________________________________________________________________________________
leaky_54 (LeakyReLU)            (None, 26, 26, 512)  0           bnorm_54[0][0]                   
__________________________________________________________________________________________________
add_16 (Add)                    (None, 26, 26, 512)  0           add_15[0][0]                     
                                                                 leaky_54[0][0]                   
__________________________________________________________________________________________________
conv_56 (Conv2D)                (None, 26, 26, 256)  131072      add_16[0][0]                     
__________________________________________________________________________________________________
bnorm_56 (BatchNormalization)   (None, 26, 26, 256)  1024        conv_56[0][0]                    
__________________________________________________________________________________________________
leaky_56 (LeakyReLU)            (None, 26, 26, 256)  0           bnorm_56[0][0]                   
__________________________________________________________________________________________________
conv_57 (Conv2D)                (None, 26, 26, 512)  1179648     leaky_56[0][0]                   
__________________________________________________________________________________________________
bnorm_57 (BatchNormalization)   (None, 26, 26, 512)  2048        conv_57[0][0]                    
__________________________________________________________________________________________________
leaky_57 (LeakyReLU)            (None, 26, 26, 512)  0           bnorm_57[0][0]                   
__________________________________________________________________________________________________
add_17 (Add)                    (None, 26, 26, 512)  0           add_16[0][0]                     
                                                                 leaky_57[0][0]                   
__________________________________________________________________________________________________
conv_59 (Conv2D)                (None, 26, 26, 256)  131072      add_17[0][0]                     
__________________________________________________________________________________________________
bnorm_59 (BatchNormalization)   (None, 26, 26, 256)  1024        conv_59[0][0]                    
__________________________________________________________________________________________________
leaky_59 (LeakyReLU)            (None, 26, 26, 256)  0           bnorm_59[0][0]                   
__________________________________________________________________________________________________
conv_60 (Conv2D)                (None, 26, 26, 512)  1179648     leaky_59[0][0]                   
__________________________________________________________________________________________________
bnorm_60 (BatchNormalization)   (None, 26, 26, 512)  2048        conv_60[0][0]                    
__________________________________________________________________________________________________
leaky_60 (LeakyReLU)            (None, 26, 26, 512)  0           bnorm_60[0][0]                   
__________________________________________________________________________________________________
add_18 (Add)                    (None, 26, 26, 512)  0           add_17[0][0]                     
                                                                 leaky_60[0][0]                   
__________________________________________________________________________________________________
zero_padding2d_4 (ZeroPadding2D (None, 27, 27, 512)  0           add_18[0][0]                     
__________________________________________________________________________________________________
conv_62 (Conv2D)                (None, 13, 13, 1024) 4718592     zero_padding2d_4[0][0]           
__________________________________________________________________________________________________
bnorm_62 (BatchNormalization)   (None, 13, 13, 1024) 4096        conv_62[0][0]                    
__________________________________________________________________________________________________
leaky_62 (LeakyReLU)            (None, 13, 13, 1024) 0           bnorm_62[0][0]                   
__________________________________________________________________________________________________
conv_63 (Conv2D)                (None, 13, 13, 512)  524288      leaky_62[0][0]                   
__________________________________________________________________________________________________
bnorm_63 (BatchNormalization)   (None, 13, 13, 512)  2048        conv_63[0][0]                    
__________________________________________________________________________________________________
leaky_63 (LeakyReLU)            (None, 13, 13, 512)  0           bnorm_63[0][0]                   
__________________________________________________________________________________________________
conv_64 (Conv2D)                (None, 13, 13, 1024) 4718592     leaky_63[0][0]                   
__________________________________________________________________________________________________
bnorm_64 (BatchNormalization)   (None, 13, 13, 1024) 4096        conv_64[0][0]                    
__________________________________________________________________________________________________
leaky_64 (LeakyReLU)            (None, 13, 13, 1024) 0           bnorm_64[0][0]                   
__________________________________________________________________________________________________
add_19 (Add)                    (None, 13, 13, 1024) 0           leaky_62[0][0]                   
                                                                 leaky_64[0][0]                   
__________________________________________________________________________________________________
conv_66 (Conv2D)                (None, 13, 13, 512)  524288      add_19[0][0]                     
__________________________________________________________________________________________________
bnorm_66 (BatchNormalization)   (None, 13, 13, 512)  2048        conv_66[0][0]                    
__________________________________________________________________________________________________
leaky_66 (LeakyReLU)            (None, 13, 13, 512)  0           bnorm_66[0][0]                   
__________________________________________________________________________________________________
conv_67 (Conv2D)                (None, 13, 13, 1024) 4718592     leaky_66[0][0]                   
__________________________________________________________________________________________________
bnorm_67 (BatchNormalization)   (None, 13, 13, 1024) 4096        conv_67[0][0]                    
__________________________________________________________________________________________________
leaky_67 (LeakyReLU)            (None, 13, 13, 1024) 0           bnorm_67[0][0]                   
__________________________________________________________________________________________________
add_20 (Add)                    (None, 13, 13, 1024) 0           add_19[0][0]                     
                                                                 leaky_67[0][0]                   
__________________________________________________________________________________________________
conv_69 (Conv2D)                (None, 13, 13, 512)  524288      add_20[0][0]                     
__________________________________________________________________________________________________
bnorm_69 (BatchNormalization)   (None, 13, 13, 512)  2048        conv_69[0][0]                    
__________________________________________________________________________________________________
leaky_69 (LeakyReLU)            (None, 13, 13, 512)  0           bnorm_69[0][0]                   
__________________________________________________________________________________________________
conv_70 (Conv2D)                (None, 13, 13, 1024) 4718592     leaky_69[0][0]                   
__________________________________________________________________________________________________
bnorm_70 (BatchNormalization)   (None, 13, 13, 1024) 4096        conv_70[0][0]                    
__________________________________________________________________________________________________
leaky_70 (LeakyReLU)            (None, 13, 13, 1024) 0           bnorm_70[0][0]                   
__________________________________________________________________________________________________
add_21 (Add)                    (None, 13, 13, 1024) 0           add_20[0][0]                     
                                                                 leaky_70[0][0]                   
__________________________________________________________________________________________________
conv_72 (Conv2D)                (None, 13, 13, 512)  524288      add_21[0][0]                     
__________________________________________________________________________________________________
bnorm_72 (BatchNormalization)   (None, 13, 13, 512)  2048        conv_72[0][0]                    
__________________________________________________________________________________________________
leaky_72 (LeakyReLU)            (None, 13, 13, 512)  0           bnorm_72[0][0]                   
__________________________________________________________________________________________________
conv_73 (Conv2D)                (None, 13, 13, 1024) 4718592     leaky_72[0][0]                   
__________________________________________________________________________________________________
bnorm_73 (BatchNormalization)   (None, 13, 13, 1024) 4096        conv_73[0][0]                    
__________________________________________________________________________________________________
leaky_73 (LeakyReLU)            (None, 13, 13, 1024) 0           bnorm_73[0][0]                   
__________________________________________________________________________________________________
add_22 (Add)                    (None, 13, 13, 1024) 0           add_21[0][0]                     
                                                                 leaky_73[0][0]                   
__________________________________________________________________________________________________
conv_75 (Conv2D)                (None, 13, 13, 512)  524288      add_22[0][0]                     
__________________________________________________________________________________________________
bnorm_75 (BatchNormalization)   (None, 13, 13, 512)  2048        conv_75[0][0]                    
__________________________________________________________________________________________________
leaky_75 (LeakyReLU)            (None, 13, 13, 512)  0           bnorm_75[0][0]                   
__________________________________________________________________________________________________
conv_76 (Conv2D)                (None, 13, 13, 1024) 4718592     leaky_75[0][0]                   
__________________________________________________________________________________________________
bnorm_76 (BatchNormalization)   (None, 13, 13, 1024) 4096        conv_76[0][0]                    
__________________________________________________________________________________________________
leaky_76 (LeakyReLU)            (None, 13, 13, 1024) 0           bnorm_76[0][0]                   
__________________________________________________________________________________________________
conv_77 (Conv2D)                (None, 13, 13, 512)  524288      leaky_76[0][0]                   
__________________________________________________________________________________________________
bnorm_77 (BatchNormalization)   (None, 13, 13, 512)  2048        conv_77[0][0]                    
__________________________________________________________________________________________________
leaky_77 (LeakyReLU)            (None, 13, 13, 512)  0           bnorm_77[0][0]                   
__________________________________________________________________________________________________
conv_78 (Conv2D)                (None, 13, 13, 1024) 4718592     leaky_77[0][0]                   
__________________________________________________________________________________________________
bnorm_78 (BatchNormalization)   (None, 13, 13, 1024) 4096        conv_78[0][0]                    
__________________________________________________________________________________________________
leaky_78 (LeakyReLU)            (None, 13, 13, 1024) 0           bnorm_78[0][0]                   
__________________________________________________________________________________________________
conv_79 (Conv2D)                (None, 13, 13, 512)  524288      leaky_78[0][0]                   
__________________________________________________________________________________________________
bnorm_79 (BatchNormalization)   (None, 13, 13, 512)  2048        conv_79[0][0]                    
__________________________________________________________________________________________________
leaky_79 (LeakyReLU)            (None, 13, 13, 512)  0           bnorm_79[0][0]                   
__________________________________________________________________________________________________
conv_84 (Conv2D)                (None, 13, 13, 256)  131072      leaky_79[0][0]                   
__________________________________________________________________________________________________
bnorm_84 (BatchNormalization)   (None, 13, 13, 256)  1024        conv_84[0][0]                    
__________________________________________________________________________________________________
leaky_84 (LeakyReLU)            (None, 13, 13, 256)  0           bnorm_84[0][0]                   
__________________________________________________________________________________________________
up_sampling2d (UpSampling2D)    (None, 26, 26, 256)  0           leaky_84[0][0]                   
__________________________________________________________________________________________________
concatenate (Concatenate)       (None, 26, 26, 768)  0           up_sampling2d[0][0]              
                                                                 add_18[0][0]                     
__________________________________________________________________________________________________
conv_87 (Conv2D)                (None, 26, 26, 256)  196608      concatenate[0][0]                
__________________________________________________________________________________________________
bnorm_87 (BatchNormalization)   (None, 26, 26, 256)  1024        conv_87[0][0]                    
__________________________________________________________________________________________________
leaky_87 (LeakyReLU)            (None, 26, 26, 256)  0           bnorm_87[0][0]                   
__________________________________________________________________________________________________
conv_88 (Conv2D)                (None, 26, 26, 512)  1179648     leaky_87[0][0]                   
__________________________________________________________________________________________________
bnorm_88 (BatchNormalization)   (None, 26, 26, 512)  2048        conv_88[0][0]                    
__________________________________________________________________________________________________
leaky_88 (LeakyReLU)            (None, 26, 26, 512)  0           bnorm_88[0][0]                   
__________________________________________________________________________________________________
conv_89 (Conv2D)                (None, 26, 26, 256)  131072      leaky_88[0][0]                   
__________________________________________________________________________________________________
bnorm_89 (BatchNormalization)   (None, 26, 26, 256)  1024        conv_89[0][0]                    
__________________________________________________________________________________________________
leaky_89 (LeakyReLU)            (None, 26, 26, 256)  0           bnorm_89[0][0]                   
__________________________________________________________________________________________________
conv_90 (Conv2D)                (None, 26, 26, 512)  1179648     leaky_89[0][0]                   
__________________________________________________________________________________________________
bnorm_90 (BatchNormalization)   (None, 26, 26, 512)  2048        conv_90[0][0]                    
__________________________________________________________________________________________________
leaky_90 (LeakyReLU)            (None, 26, 26, 512)  0           bnorm_90[0][0]                   
__________________________________________________________________________________________________
conv_91 (Conv2D)                (None, 26, 26, 256)  131072      leaky_90[0][0]                   
__________________________________________________________________________________________________
bnorm_91 (BatchNormalization)   (None, 26, 26, 256)  1024        conv_91[0][0]                    
__________________________________________________________________________________________________
leaky_91 (LeakyReLU)            (None, 26, 26, 256)  0           bnorm_91[0][0]                   
__________________________________________________________________________________________________
conv_96 (Conv2D)                (None, 26, 26, 128)  32768       leaky_91[0][0]                   
__________________________________________________________________________________________________
bnorm_96 (BatchNormalization)   (None, 26, 26, 128)  512         conv_96[0][0]                    
__________________________________________________________________________________________________
leaky_96 (LeakyReLU)            (None, 26, 26, 128)  0           bnorm_96[0][0]                   
__________________________________________________________________________________________________
up_sampling2d_1 (UpSampling2D)  (None, 52, 52, 128)  0           leaky_96[0][0]                   
__________________________________________________________________________________________________
concatenate_1 (Concatenate)     (None, 52, 52, 384)  0           up_sampling2d_1[0][0]            
                                                                 add_10[0][0]                     
__________________________________________________________________________________________________
conv_99 (Conv2D)                (None, 52, 52, 128)  49152       concatenate_1[0][0]              
__________________________________________________________________________________________________
bnorm_99 (BatchNormalization)   (None, 52, 52, 128)  512         conv_99[0][0]                    
__________________________________________________________________________________________________
leaky_99 (LeakyReLU)            (None, 52, 52, 128)  0           bnorm_99[0][0]                   
__________________________________________________________________________________________________
conv_100 (Conv2D)               (None, 52, 52, 256)  294912      leaky_99[0][0]                   
__________________________________________________________________________________________________
bnorm_100 (BatchNormalization)  (None, 52, 52, 256)  1024        conv_100[0][0]                   
__________________________________________________________________________________________________
leaky_100 (LeakyReLU)           (None, 52, 52, 256)  0           bnorm_100[0][0]                  
__________________________________________________________________________________________________
conv_101 (Conv2D)               (None, 52, 52, 128)  32768       leaky_100[0][0]                  
__________________________________________________________________________________________________
bnorm_101 (BatchNormalization)  (None, 52, 52, 128)  512         conv_101[0][0]                   
__________________________________________________________________________________________________
leaky_101 (LeakyReLU)           (None, 52, 52, 128)  0           bnorm_101[0][0]                  
__________________________________________________________________________________________________
conv_102 (Conv2D)               (None, 52, 52, 256)  294912      leaky_101[0][0]                  
__________________________________________________________________________________________________
bnorm_102 (BatchNormalization)  (None, 52, 52, 256)  1024        conv_102[0][0]                   
__________________________________________________________________________________________________
leaky_102 (LeakyReLU)           (None, 52, 52, 256)  0           bnorm_102[0][0]                  
__________________________________________________________________________________________________
conv_103 (Conv2D)               (None, 52, 52, 128)  32768       leaky_102[0][0]                  
__________________________________________________________________________________________________
bnorm_103 (BatchNormalization)  (None, 52, 52, 128)  512         conv_103[0][0]                   
__________________________________________________________________________________________________
leaky_103 (LeakyReLU)           (None, 52, 52, 128)  0           bnorm_103[0][0]                  
__________________________________________________________________________________________________
conv_80 (Conv2D)                (None, 13, 13, 1024) 4718592     leaky_79[0][0]                   
__________________________________________________________________________________________________
conv_92 (Conv2D)                (None, 26, 26, 512)  1179648     leaky_91[0][0]                   
__________________________________________________________________________________________________
conv_104 (Conv2D)               (None, 52, 52, 256)  294912      leaky_103[0][0]                  
__________________________________________________________________________________________________
bnorm_80 (BatchNormalization)   (None, 13, 13, 1024) 4096        conv_80[0][0]                    
__________________________________________________________________________________________________
bnorm_92 (BatchNormalization)   (None, 26, 26, 512)  2048        conv_92[0][0]                    
__________________________________________________________________________________________________
bnorm_104 (BatchNormalization)  (None, 52, 52, 256)  1024        conv_104[0][0]                   
__________________________________________________________________________________________________
leaky_80 (LeakyReLU)            (None, 13, 13, 1024) 0           bnorm_80[0][0]                   
__________________________________________________________________________________________________
leaky_92 (LeakyReLU)            (None, 26, 26, 512)  0           bnorm_92[0][0]                   
__________________________________________________________________________________________________
leaky_104 (LeakyReLU)           (None, 52, 52, 256)  0           bnorm_104[0][0]                  
__________________________________________________________________________________________________
conv_81 (Conv2D)                (None, 13, 13, 48)   49200       leaky_80[0][0]                   
__________________________________________________________________________________________________
input_2 (InputLayer)            [(None, None, None,  0                                            
__________________________________________________________________________________________________
input_1 (InputLayer)            [(None, 1, 1, 1, 30, 0                                            
__________________________________________________________________________________________________
conv_93 (Conv2D)                (None, 26, 26, 48)   24624       leaky_92[0][0]                   
__________________________________________________________________________________________________
input_3 (InputLayer)            [(None, None, None,  0                                            
__________________________________________________________________________________________________
conv_105 (Conv2D)               (None, 52, 52, 48)   12336       leaky_104[0][0]                  
__________________________________________________________________________________________________
input_4 (InputLayer)            [(None, None, None,  0                                            
__________________________________________________________________________________________________
yolo_layer (YoloLayer)          ((100, 1), (), (100, 0           image_input[0][0]                
…
