Model: "functional_1"
__________________________________________________________________________________________________
Layer (type)                    Output Shape         Param #     Connected to                     
==================================================================================================
input_1 (InputLayer)            [(None, 512, 512, 3) 0                                            
__________________________________________________________________________________________________
conv1 (Conv2D)                  (None, 256, 256, 64) 9408        input_1[0][0]                    
__________________________________________________________________________________________________
bn_conv1 (BatchNormalization)   (None, 256, 256, 64) 256         conv1[0][0]                      
__________________________________________________________________________________________________
conv1_relu (Activation)         (None, 256, 256, 64) 0           bn_conv1[0][0]                   
__________________________________________________________________________________________________
pool1 (MaxPooling2D)            (None, 128, 128, 64) 0           conv1_relu[0][0]                 
__________________________________________________________________________________________________
res2a_branch2a (Conv2D)         (None, 128, 128, 64) 4096        pool1[0][0]                      
__________________________________________________________________________________________________
bn2a_branch2a (BatchNormalizati (None, 128, 128, 64) 256         res2a_branch2a[0][0]             
__________________________________________________________________________________________________
res2a_branch2a_relu (Activation (None, 128, 128, 64) 0           bn2a_branch2a[0][0]              
__________________________________________________________________________________________________
padding2a_branch2b (ZeroPadding (None, 130, 130, 64) 0           res2a_branch2a_relu[0][0]        
__________________________________________________________________________________________________
res2a_branch2b (Conv2D)         (None, 128, 128, 64) 36864       padding2a_branch2b[0][0]         
__________________________________________________________________________________________________
bn2a_branch2b (BatchNormalizati (None, 128, 128, 64) 256         res2a_branch2b[0][0]             
__________________________________________________________________________________________________
res2a_branch2b_relu (Activation (None, 128, 128, 64) 0           bn2a_branch2b[0][0]              
__________________________________________________________________________________________________
res2a_branch2c (Conv2D)         (None, 128, 128, 256 16384       res2a_branch2b_relu[0][0]        
__________________________________________________________________________________________________
res2a_branch1 (Conv2D)          (None, 128, 128, 256 16384       pool1[0][0]                      
…
__________________________________________________________________________________________________
res2a (Add)                     (None, 128, 128, 256 0           bn2a_branch2c[0][0]              
                                                                 bn2a_branch1[0][0]               
__________________________________________________________________________________________________
res2a_relu (Activation)         (None, 128, 128, 256 0           res2a[0][0]                      
__________________________________________________________________________________________________
res2b_branch2a (Conv2D)         (None, 128, 128, 64) 16384       res2a_relu[0][0]                 
__________________________________________________________________________________________________
bn2b_branch2a (BatchNormalizati (None, 128, 128, 64) 256         res2b_branch2a[0][0]             
__________________________________________________________________________________________________
res2b_branch2a_relu (Activation (None, 128, 128, 64) 0           bn2b_branch2a[0][0]              
__________________________________________________________________________________________________
padding2b_branch2b (ZeroPadding (None, 130, 130, 64) 0           res2b_branch2a_relu[0][0]        
__________________________________________________________________________________________________
res2b_branch2b (Conv2D)         (None, 128, 128, 64) 36864       padding2b_branch2b[0][0]         
__________________________________________________________________________________________________
bn2b_branch2b (BatchNormalizati (None, 128, 128, 64) 256         res2b_branch2b[0][0]             
__________________________________________________________________________________________________
res2b_branch2b_relu (Activation (None, 128, 128, 64) 0           bn2b_branch2b[0][0]              
__________________________________________________________________________________________________
res2b_branch2c (Conv2D)         (None, 128, 128, 256 16384       res2b_branch2b_relu[0][0]        
__________________________________________________________________________________________________
bn2b_branch2c (BatchNormalizati (None, 128, 128, 256 1024        res2b_branch2c[0][0]             
…
__________________________________________________________________________________________________
res2c (Add)                     (None, 128, 128, 256 0           bn2c_branch2c[0][0]              
                                                                 res2b_relu[0][0]                 
__________________________________________________________________________________________________
res2c_relu (Activation)         (None, 128, 128, 256 0           res2c[0][0]                      
__________________________________________________________________________________________________
res3a_branch2a (Conv2D)         (None, 64, 64, 128)  32768       res2c_relu[0][0]                 
__________________________________________________________________________________________________
bn3a_branch2a (BatchNormalizati (None, 64, 64, 128)  512         res3a_branch2a[0][0]             
__________________________________________________________________________________________________
res3a_branch2a_relu (Activation (None, 64, 64, 128)  0           bn3a_branch2a[0][0]              
__________________________________________________________________________________________________
padding3a_branch2b (ZeroPadding (None, 66, 66, 128)  0           res3a_branch2a_relu[0][0]        
__________________________________________________________________________________________________
res3a_branch2b (Conv2D)         (None, 64, 64, 128)  147456      padding3a_branch2b[0][0]         
__________________________________________________________________________________________________
bn3a_branch2b (BatchNormalizati (None, 64, 64, 128)  512         res3a_branch2b[0][0]             
__________________________________________________________________________________________________
res3a_branch2b_relu (Activation (None, 64, 64, 128)  0           bn3a_branch2b[0][0]              
__________________________________________________________________________________________________
res3a_branch2c (Conv2D)         (None, 64, 64, 512)  65536       res3a_branch2b_relu[0][0]        
__________________________________________________________________________________________________
res3a_branch1 (Conv2D)          (None, 64, 64, 512)  131072      res2c_relu[0][0]                 
__________________________________________________________________________________________________
bn3a_branch2c (BatchNormalizati (None, 64, 64, 512)  2048        res3a_branch2c[0][0]             
__________________________________________________________________________________________________
bn3a_branch1 (BatchNormalizatio (None, 64, 64, 512)  2048        res3a_branch1[0][0]              
__________________________________________________________________________________________________
res3a (Add)                     (None, 64, 64, 512)  0           bn3a_branch2c[0][0]              
                                                                 bn3a_branch1[0][0]               
__________________________________________________________________________________________________
res3a_relu (Activation)         (None, 64, 64, 512)  0           res3a[0][0]                      
__________________________________________________________________________________________________
res3b1_branch2a (Conv2D)        (None, 64, 64, 128)  65536       res3a_relu[0][0]                 
__________________________________________________________________________________________________
bn3b1_branch2a (BatchNormalizat (None, 64, 64, 128)  512         res3b1_branch2a[0][0]            
__________________________________________________________________________________________________
res3b1_branch2a_relu (Activatio (None, 64, 64, 128)  0           bn3b1_branch2a[0][0]             
__________________________________________________________________________________________________
padding3b1_branch2b (ZeroPaddin (None, 66, 66, 128)  0           res3b1_branch2a_relu[0][0]       
__________________________________________________________________________________________________
res3b1_branch2b (Conv2D)        (None, 64, 64, 128)  147456      padding3b1_branch2b[0][0]        
__________________________________________________________________________________________________
bn3b1_branch2b (BatchNormalizat (None, 64, 64, 128)  512         res3b1_branch2b[0][0]            
__________________________________________________________________________________________________
res3b1_branch2b_relu (Activatio (None, 64, 64, 128)  0           bn3b1_branch2b[0][0]             
__________________________________________________________________________________________________
res3b1_branch2c (Conv2D)        (None, 64, 64, 512)  65536       res3b1_branch2b_relu[0][0]       
__________________________________________________________________________________________________
bn3b1_branch2c (BatchNormalizat (None, 64, 64, 512)  2048        res3b1_branch2c[0][0]            
__________________________________________________________________________________________________
res3b1 (Add)                    (None, 64, 64, 512)  0           bn3b1_branch2c[0][0]             
                                                                 res3a_relu[0][0]                 
__________________________________________________________________________________________________
res3b1_relu (Activation)        (None, 64, 64, 512)  0           res3b1[0][0]                     
__________________________________________________________________________________________________
res3b2_branch2a (Conv2D)        (None, 64, 64, 128)  65536       res3b1_relu[0][0]                
__________________________________________________________________________________________________
bn3b2_branch2a (BatchNormalizat (None, 64, 64, 128)  512         res3b2_branch2a[0][0]            
__________________________________________________________________________________________________
res3b2_branch2a_relu (Activatio (None, 64, 64, 128)  0           bn3b2_branch2a[0][0]             
__________________________________________________________________________________________________
padding3b2_branch2b (ZeroPaddin (None, 66, 66, 128)  0           res3b2_branch2a_relu[0][0]       
__________________________________________________________________________________________________
res3b2_branch2b (Conv2D)        (None, 64, 64, 128)  147456      padding3b2_branch2b[0][0]        
__________________________________________________________________________________________________
bn3b2_branch2b (BatchNormalizat (None, 64, 64, 128)  512         res3b2_branch2b[0][0]            
__________________________________________________________________________________________________
res3b2_branch2b_relu (Activatio (None, 64, 64, 128)  0           bn3b2_branch2b[0][0]             
__________________________________________________________________________________________________
res3b2_branch2c (Conv2D)        (None, 64, 64, 512)  65536       res3b2_branch2b_relu[0][0]       
__________________________________________________________________________________________________
bn3b2_branch2c (BatchNormalizat (None, 64, 64, 512)  2048        res3b2_branch2c[0][0]            
__________________________________________________________________________________________________
res3b2 (Add)                    (None, 64, 64, 512)  0           bn3b2_branch2c[0][0]             
                                                                 res3b1_relu[0][0]                
__________________________________________________________________________________________________
res3b2_relu (Activation)        (None, 64, 64, 512)  0           res3b2[0][0]                     
__________________________________________________________________________________________________
res3b3_branch2a (Conv2D)        (None, 64, 64, 128)  65536       res3b2_relu[0][0]                
__________________________________________________________________________________________________
bn3b3_branch2a (BatchNormalizat (None, 64, 64, 128)  512         res3b3_branch2a[0][0]            
__________________________________________________________________________________________________
res3b3_branch2a_relu (Activatio (None, 64, 64, 128)  0           bn3b3_branch2a[0][0]             
__________________________________________________________________________________________________
padding3b3_branch2b (ZeroPaddin (None, 66, 66, 128)  0           res3b3_branch2a_relu[0][0]       
__________________________________________________________________________________________________
res3b3_branch2b (Conv2D)        (None, 64, 64, 128)  147456      padding3b3_branch2b[0][0]        
__________________________________________________________________________________________________
bn3b3_branch2b (BatchNormalizat (None, 64, 64, 128)  512         res3b3_branch2b[0][0]            
__________________________________________________________________________________________________
res3b3_branch2b_relu (Activatio (None, 64, 64, 128)  0           bn3b3_branch2b[0][0]             
__________________________________________________________________________________________________
res3b3_branch2c (Conv2D)        (None, 64, 64, 512)  65536       res3b3_branch2b_relu[0][0]       
__________________________________________________________________________________________________
bn3b3_branch2c (BatchNormalizat (None, 64, 64, 512)  2048        res3b3_branch2c[0][0]            
__________________________________________________________________________________________________
res3b3 (Add)                    (None, 64, 64, 512)  0           bn3b3_branch2c[0][0]             
                                                                 res3b2_relu[0][0]                
__________________________________________________________________________________________________
res3b3_relu (Activation)        (None, 64, 64, 512)  0           res3b3[0][0]                     
__________________________________________________________________________________________________
res4a_branch2a (Conv2D)         (None, 32, 32, 256)  131072      res3b3_relu[0][0]                
__________________________________________________________________________________________________
bn4a_branch2a (BatchNormalizati (None, 32, 32, 256)  1024        res4a_branch2a[0][0]             
__________________________________________________________________________________________________
res4a_branch2a_relu (Activation (None, 32, 32, 256)  0           bn4a_branch2a[0][0]              
__________________________________________________________________________________________________
padding4a_branch2b (ZeroPadding (None, 34, 34, 256)  0           res4a_branch2a_relu[0][0]        
__________________________________________________________________________________________________
res4a_branch2b (Conv2D)         (None, 32, 32, 256)  589824      padding4a_branch2b[0][0]         
__________________________________________________________________________________________________
bn4a_branch2b (BatchNormalizati (None, 32, 32, 256)  1024        res4a_branch2b[0][0]             
__________________________________________________________________________________________________
res4a_branch2b_relu (Activation (None, 32, 32, 256)  0           bn4a_branch2b[0][0]              
__________________________________________________________________________________________________
res4a_branch2c (Conv2D)         (None, 32, 32, 1024) 262144      res4a_branch2b_relu[0][0]        
__________________________________________________________________________________________________
res4a_branch1 (Conv2D)          (None, 32, 32, 1024) 524288      res3b3_relu[0][0]                
__________________________________________________________________________________________________
bn4a_branch2c (BatchNormalizati (None, 32, 32, 1024) 4096        res4a_branch2c[0][0]             
__________________________________________________________________________________________________
bn4a_branch1 (BatchNormalizatio (None, 32, 32, 1024) 4096        res4a_branch1[0][0]              
__________________________________________________________________________________________________
res4a (Add)                     (None, 32, 32, 1024) 0           bn4a_branch2c[0][0]              
                                                                 bn4a_branch1[0][0]               
__________________________________________________________________________________________________
res4a_relu (Activation)         (None, 32, 32, 1024) 0           res4a[0][0]                      
__________________________________________________________________________________________________
res4b1_branch2a (Conv2D)        (None, 32, 32, 256)  262144      res4a_relu[0][0]                 
__________________________________________________________________________________________________
bn4b1_branch2a (BatchNormalizat (None, 32, 32, 256)  1024        res4b1_branch2a[0][0]            
__________________________________________________________________________________________________
res4b1_branch2a_relu (Activatio (None, 32, 32, 256)  0           bn4b1_branch2a[0][0]             
__________________________________________________________________________________________________
padding4b1_branch2b (ZeroPaddin (None, 34, 34, 256)  0           res4b1_branch2a_relu[0][0]       
__________________________________________________________________________________________________
res4b1_branch2b (Conv2D)        (None, 32, 32, 256)  589824      padding4b1_branch2b[0][0]        
__________________________________________________________________________________________________
bn4b1_branch2b (BatchNormalizat (None, 32, 32, 256)  1024        res4b1_branch2b[0][0]            
__________________________________________________________________________________________________
res4b1_branch2b_relu (Activatio (None, 32, 32, 256)  0           bn4b1_branch2b[0][0]             
__________________________________________________________________________________________________
res4b1_branch2c (Conv2D)        (None, 32, 32, 1024) 262144      res4b1_branch2b_relu[0][0]       
__________________________________________________________________________________________________
bn4b1_branch2c (BatchNormalizat (None, 32, 32, 1024) 4096        res4b1_branch2c[0][0]            
__________________________________________________________________________________________________
res4b1 (Add)                    (None, 32, 32, 1024) 0           bn4b1_branch2c[0][0]             
                                                                 res4a_relu[0][0]                 
__________________________________________________________________________________________________
res4b1_relu (Activation)        (None, 32, 32, 1024) 0           res4b1[0][0]                     
__________________________________________________________________________________________________
res4b2_branch2a (Conv2D)        (None, 32, 32, 256)  262144      res4b1_relu[0][0]                
__________________________________________________________________________________________________
bn4b2_branch2a (BatchNormalizat (None, 32, 32, 256)  1024        res4b2_branch2a[0][0]            
__________________________________________________________________________________________________
res4b2_branch2a_relu (Activatio (None, 32, 32, 256)  0           bn4b2_branch2a[0][0]             
__________________________________________________________________________________________________
padding4b2_branch2b (ZeroPaddin (None, 34, 34, 256)  0           res4b2_branch2a_relu[0][0]       
__________________________________________________________________________________________________
res4b2_branch2b (Conv2D)        (None, 32, 32, 256)  589824      padding4b2_branch2b[0][0]        
__________________________________________________________________________________________________
bn4b2_branch2b (BatchNormalizat (None, 32, 32, 256)  1024        res4b2_branch2b[0][0]            
__________________________________________________________________________________________________
res4b2_branch2b_relu (Activatio (None, 32, 32, 256)  0           bn4b2_branch2b[0][0]             
__________________________________________________________________________________________________
res4b2_branch2c (Conv2D)        (None, 32, 32, 1024) 262144      res4b2_branch2b_relu[0][0]       
__________________________________________________________________________________________________
bn4b2_branch2c (BatchNormalizat (None, 32, 32, 1024) 4096        res4b2_branch2c[0][0]            
__________________________________________________________________________________________________
res4b2 (Add)                    (None, 32, 32, 1024) 0           bn4b2_branch2c[0][0]             
                                                                 res4b1_relu[0][0]                
__________________________________________________________________________________________________
res4b2_relu (Activation)        (None, 32, 32, 1024) 0           res4b2[0][0]                     
__________________________________________________________________________________________________
res4b3_branch2a (Conv2D)        (None, 32, 32, 256)  262144      res4b2_relu[0][0]                
__________________________________________________________________________________________________
bn4b3_branch2a (BatchNormalizat (None, 32, 32, 256)  1024        res4b3_branch2a[0][0]            
__________________________________________________________________________________________________
res4b3_branch2a_relu (Activatio (None, 32, 32, 256)  0           bn4b3_branch2a[0][0]             
__________________________________________________________________________________________________
padding4b3_branch2b (ZeroPaddin (None, 34, 34, 256)  0           res4b3_branch2a_relu[0][0]       
__________________________________________________________________________________________________
res4b3_branch2b (Conv2D)        (None, 32, 32, 256)  589824      padding4b3_branch2b[0][0]        
__________________________________________________________________________________________________
bn4b3_branch2b (BatchNormalizat (None, 32, 32, 256)  1024        res4b3_branch2b[0][0]            
__________________________________________________________________________________________________
res4b3_branch2b_relu (Activatio (None, 32, 32, 256)  0           bn4b3_branch2b[0][0]             
__________________________________________________________________________________________________
res4b3_branch2c (Conv2D)        (None, 32, 32, 1024) 262144      res4b3_branch2b_relu[0][0]       
__________________________________________________________________________________________________
bn4b3_branch2c (BatchNormalizat (None, 32, 32, 1024) 4096        res4b3_branch2c[0][0]            
__________________________________________________________________________________________________
res4b3 (Add)                    (None, 32, 32, 1024) 0           bn4b3_branch2c[0][0]             
                                                                 res4b2_relu[0][0]                
__________________________________________________________________________________________________
res4b3_relu (Activation)        (None, 32, 32, 1024) 0           res4b3[0][0]                     
__________________________________________________________________________________________________
res4b4_branch2a (Conv2D)        (None, 32, 32, 256)  262144      res4b3_relu[0][0]                
__________________________________________________________________________________________________
bn4b4_branch2a (BatchNormalizat (None, 32, 32, 256)  1024        res4b4_branch2a[0][0]            
__________________________________________________________________________________________________
res4b4_branch2a_relu (Activatio (None, 32, 32, 256)  0           bn4b4_branch2a[0][0]             
__________________________________________________________________________________________________
padding4b4_branch2b (ZeroPaddin (None, 34, 34, 256)  0           res4b4_branch2a_relu[0][0]       
__________________________________________________________________________________________________
res4b4_branch2b (Conv2D)        (None, 32, 32, 256)  589824      padding4b4_branch2b[0][0]        
__________________________________________________________________________________________________
bn4b4_branch2b (BatchNormalizat (None, 32, 32, 256)  1024        res4b4_branch2b[0][0]            
__________________________________________________________________________________________________
res4b4_branch2b_relu (Activatio (None, 32, 32, 256)  0           bn4b4_branch2b[0][0]             
__________________________________________________________________________________________________
res4b4_branch2c (Conv2D)        (None, 32, 32, 1024) 262144      res4b4_branch2b_relu[0][0]       
__________________________________________________________________________________________________
bn4b4_branch2c (BatchNormalizat (None, 32, 32, 1024) 4096        res4b4_branch2c[0][0]            
__________________________________________________________________________________________________
res4b4 (Add)                    (None, 32, 32, 1024) 0           bn4b4_branch2c[0][0]             
                                                                 res4b3_relu[0][0]                
__________________________________________________________________________________________________
res4b4_relu (Activation)        (None, 32, 32, 1024) 0           res4b4[0][0]                     
__________________________________________________________________________________________________
res4b5_branch2a (Conv2D)        (None, 32, 32, 256)  262144      res4b4_relu[0][0]                
__________________________________________________________________________________________________
bn4b5_branch2a (BatchNormalizat (None, 32, 32, 256)  1024        res4b5_branch2a[0][0]            
__________________________________________________________________________________________________
res4b5_branch2a_relu (Activatio (None, 32, 32, 256)  0           bn4b5_branch2a[0][0]             
__________________________________________________________________________________________________
padding4b5_branch2b (ZeroPaddin (None, 34, 34, 256)  0           res4b5_branch2a_relu[0][0]       
__________________________________________________________________________________________________
res4b5_branch2b (Conv2D)        (None, 32, 32, 256)  589824      padding4b5_branch2b[0][0]        
__________________________________________________________________________________________________
bn4b5_branch2b (BatchNormalizat (None, 32, 32, 256)  1024        res4b5_branch2b[0][0]            
__________________________________________________________________________________________________
res4b5_branch2b_relu (Activatio (None, 32, 32, 256)  0           bn4b5_branch2b[0][0]             
__________________________________________________________________________________________________
res4b5_branch2c (Conv2D)        (None, 32, 32, 1024) 262144      res4b5_branch2b_relu[0][0]       
__________________________________________________________________________________________________
bn4b5_branch2c (BatchNormalizat (None, 32, 32, 1024) 4096        res4b5_branch2c[0][0]            
__________________________________________________________________________________________________
res4b5 (Add)                    (None, 32, 32, 1024) 0           bn4b5_branch2c[0][0]             
                                                                 res4b4_relu[0][0]                
__________________________________________________________________________________________________
res4b5_relu (Activation)        (None, 32, 32, 1024) 0           res4b5[0][0]                     
__________________________________________________________________________________________________
res4b6_branch2a (Conv2D)        (None, 32, 32, 256)  262144      res4b5_relu[0][0]                
__________________________________________________________________________________________________
bn4b6_branch2a (BatchNormalizat (None, 32, 32, 256)  1024        res4b6_branch2a[0][0]            
__________________________________________________________________________________________________
res4b6_branch2a_relu (Activatio (None, 32, 32, 256)  0           bn4b6_branch2a[0][0]             
__________________________________________________________________________________________________
padding4b6_branch2b (ZeroPaddin (None, 34, 34, 256)  0           res4b6_branch2a_relu[0][0]       
__________________________________________________________________________________________________
res4b6_branch2b (Conv2D)        (None, 32, 32, 256)  589824      padding4b6_branch2b[0][0]        
__________________________________________________________________________________________________
bn4b6_branch2b (BatchNormalizat (None, 32, 32, 256)  1024        res4b6_branch2b[0][0]            
__________________________________________________________________________________________________
res4b6_branch2b_relu (Activatio (None, 32, 32, 256)  0           bn4b6_branch2b[0][0]             
__________________________________________________________________________________________________
res4b6_branch2c (Conv2D)        (None, 32, 32, 1024) 262144      res4b6_branch2b_relu[0][0]       
__________________________________________________________________________________________________
bn4b6_branch2c (BatchNormalizat (None, 32, 32, 1024) 4096        res4b6_branch2c[0][0]            
__________________________________________________________________________________________________
res4b6 (Add)                    (None, 32, 32, 1024) 0           bn4b6_branch2c[0][0]             
                                                                 res4b5_relu[0][0]                
__________________________________________________________________________________________________
res4b6_relu (Activation)        (None, 32, 32, 1024) 0           res4b6[0][0]                     
__________________________________________________________________________________________________
res4b7_branch2a (Conv2D)        (None, 32, 32, 256)  262144      res4b6_relu[0][0]                
__________________________________________________________________________________________________
bn4b7_branch2a (BatchNormalizat (None, 32, 32, 256)  1024        res4b7_branch2a[0][0]            
__________________________________________________________________________________________________
res4b7_branch2a_relu (Activatio (None, 32, 32, 256)  0           bn4b7_branch2a[0][0]             
__________________________________________________________________________________________________
padding4b7_branch2b (ZeroPaddin (None, 34, 34, 256)  0           res4b7_branch2a_relu[0][0]       
__________________________________________________________________________________________________
res4b7_branch2b (Conv2D)        (None, 32, 32, 256)  589824      padding4b7_branch2b[0][0]        
__________________________________________________________________________________________________
bn4b7_branch2b (BatchNormalizat (None, 32, 32, 256)  1024        res4b7_branch2b[0][0]            
__________________________________________________________________________________________________
res4b7_branch2b_relu (Activatio (None, 32, 32, 256)  0           bn4b7_branch2b[0][0]             
__________________________________________________________________________________________________
res4b7_branch2c (Conv2D)        (None, 32, 32, 1024) 262144      res4b7_branch2b_relu[0][0]       
__________________________________________________________________________________________________
bn4b7_branch2c (BatchNormalizat (None, 32, 32, 1024) 4096        res4b7_branch2c[0][0]            
__________________________________________________________________________________________________
res4b7 (Add)                    (None, 32, 32, 1024) 0           bn4b7_branch2c[0][0]             
                                                                 res4b6_relu[0][0]                
__________________________________________________________________________________________________
res4b7_relu (Activation)        (None, 32, 32, 1024) 0           res4b7[0][0]                     
__________________________________________________________________________________________________
res4b8_branch2a (Conv2D)        (None, 32, 32, 256)  262144      res4b7_relu[0][0]                
__________________________________________________________________________________________________
bn4b8_branch2a (BatchNormalizat (None, 32, 32, 256)  1024        res4b8_branch2a[0][0]            
__________________________________________________________________________________________________
res4b8_branch2a_relu (Activatio (None, 32, 32, 256)  0           bn4b8_branch2a[0][0]             
__________________________________________________________________________________________________
padding4b8_branch2b (ZeroPaddin (None, 34, 34, 256)  0           res4b8_branch2a_relu[0][0]       
__________________________________________________________________________________________________
res4b8_branch2b (Conv2D)        (None, 32, 32, 256)  589824      padding4b8_branch2b[0][0]        
__________________________________________________________________________________________________
bn4b8_branch2b (BatchNormalizat (None, 32, 32, 256)  1024        res4b8_branch2b[0][0]            
__________________________________________________________________________________________________
res4b8_branch2b_relu (Activatio (None, 32, 32, 256)  0           bn4b8_branch2b[0][0]             
__________________________________________________________________________________________________
res4b8_branch2c (Conv2D)        (None, 32, 32, 1024) 262144      res4b8_branch2b_relu[0][0]       
__________________________________________________________________________________________________
bn4b8_branch2c (BatchNormalizat (None, 32, 32, 1024) 4096        res4b8_branch2c[0][0]            
__________________________________________________________________________________________________
res4b8 (Add)                    (None, 32, 32, 1024) 0           bn4b8_branch2c[0][0]             
                                                                 res4b7_relu[0][0]                
__________________________________________________________________________________________________
res4b8_relu (Activation)        (None, 32, 32, 1024) 0           res4b8[0][0]                     
__________________________________________________________________________________________________
res4b9_branch2a (Conv2D)        (None, 32, 32, 256)  262144      res4b8_relu[0][0]                
__________________________________________________________________________________________________
bn4b9_branch2a (BatchNormalizat (None, 32, 32, 256)  1024        res4b9_branch2a[0][0]            
__________________________________________________________________________________________________
res4b9_branch2a_relu (Activatio (None, 32, 32, 256)  0           bn4b9_branch2a[0][0]             
__________________________________________________________________________________________________
padding4b9_branch2b (ZeroPaddin (None, 34, 34, 256)  0           res4b9_branch2a_relu[0][0]       
__________________________________________________________________________________________________
res4b9_branch2b (Conv2D)        (None, 32, 32, 256)  589824      padding4b9_branch2b[0][0]        
__________________________________________________________________________________________________
bn4b9_branch2b (BatchNormalizat (None, 32, 32, 256)  1024        res4b9_branch2b[0][0]            
__________________________________________________________________________________________________
res4b9_branch2b_relu (Activatio (None, 32, 32, 256)  0           bn4b9_branch2b[0][0]             
__________________________________________________________________________________________________
res4b9_branch2c (Conv2D)        (None, 32, 32, 1024) 262144      res4b9_branch2b_relu[0][0]       
__________________________________________________________________________________________________
bn4b9_branch2c (BatchNormalizat (None, 32, 32, 1024) 4096        res4b9_branch2c[0][0]            
__________________________________________________________________________________________________
res4b9 (Add)                    (None, 32, 32, 1024) 0           bn4b9_branch2c[0][0]             
                                                                 res4b8_relu[0][0]                
__________________________________________________________________________________________________
res4b9_relu (Activation)        (None, 32, 32, 1024) 0           res4b9[0][0]                     
__________________________________________________________________________________________________
res4b10_branch2a (Conv2D)       (None, 32, 32, 256)  262144      res4b9_relu[0][0]                
__________________________________________________________________________________________________
bn4b10_branch2a (BatchNormaliza (None, 32, 32, 256)  1024        res4b10_branch2a[0][0]           
__________________________________________________________________________________________________
res4b10_branch2a_relu (Activati (None, 32, 32, 256)  0           bn4b10_branch2a[0][0]            
__________________________________________________________________________________________________
padding4b10_branch2b (ZeroPaddi (None, 34, 34, 256)  0           res4b10_branch2a_relu[0][0]      
__________________________________________________________________________________________________
res4b10_branch2b (Conv2D)       (None, 32, 32, 256)  589824      padding4b10_branch2b[0][0]       
__________________________________________________________________________________________________
bn4b10_branch2b (BatchNormaliza (None, 32, 32, 256)  1024        res4b10_branch2b[0][0]           
__________________________________________________________________________________________________
res4b10_branch2b_relu (Activati (None, 32, 32, 256)  0           bn4b10_branch2b[0][0]            
__________________________________________________________________________________________________
res4b10_branch2c (Conv2D)       (None, 32, 32, 1024) 262144      res4b10_branch2b_relu[0][0]      
__________________________________________________________________________________________________
bn4b10_branch2c (BatchNormaliza (None, 32, 32, 1024) 4096        res4b10_branch2c[0][0]           
__________________________________________________________________________________________________
res4b10 (Add)                   (None, 32, 32, 1024) 0           bn4b10_branch2c[0][0]            
                                                                 res4b9_relu[0][0]                
__________________________________________________________________________________________________
res4b10_relu (Activation)       (None, 32, 32, 1024) 0           res4b10[0][0]                    
__________________________________________________________________________________________________
res4b11_branch2a (Conv2D)       (None, 32, 32, 256)  262144      res4b10_relu[0][0]               
__________________________________________________________________________________________________
bn4b11_branch2a (BatchNormaliza (None, 32, 32, 256)  1024        res4b11_branch2a[0][0]           
__________________________________________________________________________________________________
res4b11_branch2a_relu (Activati (None, 32, 32, 256)  0           bn4b11_branch2a[0][0]            
__________________________________________________________________________________________________
padding4b11_branch2b (ZeroPaddi (None, 34, 34, 256)  0           res4b11_branch2a_relu[0][0]      
__________________________________________________________________________________________________
res4b11_branch2b (Conv2D)       (None, 32, 32, 256)  589824      padding4b11_branch2b[0][0]       
__________________________________________________________________________________________________
bn4b11_branch2b (BatchNormaliza (None, 32, 32, 256)  1024        res4b11_branch2b[0][0]           
__________________________________________________________________________________________________
res4b11_branch2b_relu (Activati (None, 32, 32, 256)  0           bn4b11_branch2b[0][0]            
__________________________________________________________________________________________________
res4b11_branch2c (Conv2D)       (None, 32, 32, 1024) 262144      res4b11_branch2b_relu[0][0]      
__________________________________________________________________________________________________
bn4b11_branch2c (BatchNormaliza (None, 32, 32, 1024) 4096        res4b11_branch2c[0][0]           
__________________________________________________________________________________________________
res4b11 (Add)                   (None, 32, 32, 1024) 0           bn4b11_branch2c[0][0]            
                                                                 res4b10_relu[0][0]               
__________________________________________________________________________________________________
res4b11_relu (Activation)       (None, 32, 32, 1024) 0           res4b11[0][0]                    
__________________________________________________________________________________________________
res4b12_branch2a (Conv2D)       (None, 32, 32, 256)  262144      res4b11_relu[0][0]               
__________________________________________________________________________________________________
bn4b12_branch2a (BatchNormaliza (None, 32, 32, 256)  1024        res4b12_branch2a[0][0]           
__________________________________________________________________________________________________
res4b12_branch2a_relu (Activati (None, 32, 32, 256)  0           bn4b12_branch2a[0][0]            
__________________________________________________________________________________________________
padding4b12_branch2b (ZeroPaddi (None, 34, 34, 256)  0           res4b12_branch2a_relu[0][0]      
__________________________________________________________________________________________________
res4b12_branch2b (Conv2D)       (None, 32, 32, 256)  589824      padding4b12_branch2b[0][0]       
__________________________________________________________________________________________________
bn4b12_branch2b (BatchNormaliza (None, 32, 32, 256)  1024        res4b12_branch2b[0][0]           
__________________________________________________________________________________________________
res4b12_branch2b_relu (Activati (None, 32, 32, 256)  0           bn4b12_branch2b[0][0]            
__________________________________________________________________________________________________
res4b12_branch2c (Conv2D)       (None, 32, 32, 1024) 262144      res4b12_branch2b_relu[0][0]      
__________________________________________________________________________________________________
bn4b12_branch2c (BatchNormaliza (None, 32, 32, 1024) 4096        res4b12_branch2c[0][0]           
__________________________________________________________________________________________________
res4b12 (Add)                   (None, 32, 32, 1024) 0           bn4b12_branch2c[0][0]            
                                                                 res4b11_relu[0][0]               
__________________________________________________________________________________________________
res4b12_relu (Activation)       (None, 32, 32, 1024) 0           res4b12[0][0]                    
__________________________________________________________________________________________________
res4b13_branch2a (Conv2D)       (None, 32, 32, 256)  262144      res4b12_relu[0][0]               
__________________________________________________________________________________________________
bn4b13_branch2a (BatchNormaliza (None, 32, 32, 256)  1024        res4b13_branch2a[0][0]           
__________________________________________________________________________________________________
res4b13_branch2a_relu (Activati (None, 32, 32, 256)  0           bn4b13_branch2a[0][0]            
__________________________________________________________________________________________________
padding4b13_branch2b (ZeroPaddi (None, 34, 34, 256)  0           res4b13_branch2a_relu[0][0]      
__________________________________________________________________________________________________
res4b13_branch2b (Conv2D)       (None, 32, 32, 256)  589824      padding4b13_branch2b[0][0]       
__________________________________________________________________________________________________
bn4b13_branch2b (BatchNormaliza (None, 32, 32, 256)  1024        res4b13_branch2b[0][0]           
__________________________________________________________________________________________________
res4b13_branch2b_relu (Activati (None, 32, 32, 256)  0           bn4b13_branch2b[0][0]            
__________________________________________________________________________________________________
res4b13_branch2c (Conv2D)       (None, 32, 32, 1024) 262144      res4b13_branch2b_relu[0][0]      
__________________________________________________________________________________________________
bn4b13_branch2c (BatchNormaliza (None, 32, 32, 1024) 4096        res4b13_branch2c[0][0]           
__________________________________________________________________________________________________
res4b13 (Add)                   (None, 32, 32, 1024) 0           bn4b13_branch2c[0][0]            
                                                                 res4b12_relu[0][0]               
__________________________________________________________________________________________________
res4b13_relu (Activation)       (None, 32, 32, 1024) 0           res4b13[0][0]                    
__________________________________________________________________________________________________
res4b14_branch2a (Conv2D)       (None, 32, 32, 256)  262144      res4b13_relu[0][0]               
__________________________________________________________________________________________________
bn4b14_branch2a (BatchNormaliza (None, 32, 32, 256)  1024        res4b14_branch2a[0][0]           
__________________________________________________________________________________________________
res4b14_branch2a_relu (Activati (None, 32, 32, 256)  0           bn4b14_branch2a[0][0]            
__________________________________________________________________________________________________
padding4b14_branch2b (ZeroPaddi (None, 34, 34, 256)  0           res4b14_branch2a_relu[0][0]      
__________________________________________________________________________________________________
res4b14_branch2b (Conv2D)       (None, 32, 32, 256)  589824      padding4b14_branch2b[0][0]       
__________________________________________________________________________________________________
bn4b14_branch2b (BatchNormaliza (None, 32, 32, 256)  1024        res4b14_branch2b[0][0]           
__________________________________________________________________________________________________
res4b14_branch2b_relu (Activati (None, 32, 32, 256)  0           bn4b14_branch2b[0][0]            
__________________________________________________________________________________________________
res4b14_branch2c (Conv2D)       (None, 32, 32, 1024) 262144      res4b14_branch2b_relu[0][0]      
__________________________________________________________________________________________________
bn4b14_branch2c (BatchNormaliza (None, 32, 32, 1024) 4096        res4b14_branch2c[0][0]           
__________________________________________________________________________________________________
res4b14 (Add)                   (None, 32, 32, 1024) 0           bn4b14_branch2c[0][0]            
                                                                 res4b13_relu[0][0]               
__________________________________________________________________________________________________
res4b14_relu (Activation)       (None, 32, 32, 1024) 0           res4b14[0][0]                    
__________________________________________________________________________________________________
res4b15_branch2a (Conv2D)       (None, 32, 32, 256)  262144      res4b14_relu[0][0]               
__________________________________________________________________________________________________
bn4b15_branch2a (BatchNormaliza (None, 32, 32, 256)  1024        res4b15_branch2a[0][0]           
__________________________________________________________________________________________________
res4b15_branch2a_relu (Activati (None, 32, 32, 256)  0           bn4b15_branch2a[0][0]            
__________________________________________________________________________________________________
padding4b15_branch2b (ZeroPaddi (None, 34, 34, 256)  0           res4b15_branch2a_relu[0][0]      
__________________________________________________________________________________________________
res4b15_branch2b (Conv2D)       (None, 32, 32, 256)  589824      padding4b15_branch2b[0][0]       
__________________________________________________________________________________________________
bn4b15_branch2b (BatchNormaliza (None, 32, 32, 256)  1024        res4b15_branch2b[0][0]           
__________________________________________________________________________________________________
res4b15_branch2b_relu (Activati (None, 32, 32, 256)  0           bn4b15_branch2b[0][0]            
__________________________________________________________________________________________________
res4b15_branch2c (Conv2D)       (None, 32, 32, 1024) 262144      res4b15_branch2b_relu[0][0]      
__________________________________________________________________________________________________
bn4b15_branch2c (BatchNormaliza (None, 32, 32, 1024) 4096        res4b15_branch2c[0][0]           
__________________________________________________________________________________________________
res4b15 (Add)                   (None, 32, 32, 1024) 0           bn4b15_branch2c[0][0]            
                                                                 res4b14_relu[0][0]               
__________________________________________________________________________________________________
res4b15_relu (Activation)       (None, 32, 32, 1024) 0           res4b15[0][0]                    
__________________________________________________________________________________________________
res4b16_branch2a (Conv2D)       (None, 32, 32, 256)  262144      res4b15_relu[0][0]               
__________________________________________________________________________________________________
bn4b16_branch2a (BatchNormaliza (None, 32, 32, 256)  1024        res4b16_branch2a[0][0]           
__________________________________________________________________________________________________
res4b16_branch2a_relu (Activati (None, 32, 32, 256)  0           bn4b16_branch2a[0][0]            
__________________________________________________________________________________________________
padding4b16_branch2b (ZeroPaddi (None, 34, 34, 256)  0           res4b16_branch2a_relu[0][0]      
__________________________________________________________________________________________________
res4b16_branch2b (Conv2D)       (None, 32, 32, 256)  589824      padding4b16_branch2b[0][0]       
__________________________________________________________________________________________________
bn4b16_branch2b (BatchNormaliza (None, 32, 32, 256)  1024        res4b16_branch2b[0][0]           
__________________________________________________________________________________________________
res4b16_branch2b_relu (Activati (None, 32, 32, 256)  0           bn4b16_branch2b[0][0]            
__________________________________________________________________________________________________
res4b16_branch2c (Conv2D)       (None, 32, 32, 1024) 262144      res4b16_branch2b_relu[0][0]      
__________________________________________________________________________________________________
bn4b16_branch2c (BatchNormaliza (None, 32, 32, 1024) 4096        res4b16_branch2c[0][0]           
__________________________________________________________________________________________________
res4b16 (Add)                   (None, 32, 32, 1024) 0           bn4b16_branch2c[0][0]            
                                                                 res4b15_relu[0][0]               
__________________________________________________________________________________________________
res4b16_relu (Activation)       (None, 32, 32, 1024) 0           res4b16[0][0]                    
__________________________________________________________________________________________________
res4b17_branch2a (Conv2D)       (None, 32, 32, 256)  262144      res4b16_relu[0][0]               
__________________________________________________________________________________________________
bn4b17_branch2a (BatchNormaliza (None, 32, 32, 256)  1024        res4b17_branch2a[0][0]           
__________________________________________________________________________________________________
res4b17_branch2a_relu (Activati (None, 32, 32, 256)  0           bn4b17_branch2a[0][0]            
__________________________________________________________________________________________________
padding4b17_branch2b (ZeroPaddi (None, 34, 34, 256)  0           res4b17_branch2a_relu[0][0]      
__________________________________________________________________________________________________
res4b17_branch2b (Conv2D)       (None, 32, 32, 256)  589824      padding4b17_branch2b[0][0]       
__________________________________________________________________________________________________
bn4b17_branch2b (BatchNormaliza (None, 32, 32, 256)  1024        res4b17_branch2b[0][0]           
__________________________________________________________________________________________________
res4b17_branch2b_relu (Activati (None, 32, 32, 256)  0           bn4b17_branch2b[0][0]            
__________________________________________________________________________________________________
res4b17_branch2c (Conv2D)       (None, 32, 32, 1024) 262144      res4b17_branch2b_relu[0][0]      
__________________________________________________________________________________________________
bn4b17_branch2c (BatchNormaliza (None, 32, 32, 1024) 4096        res4b17_branch2c[0][0]           
__________________________________________________________________________________________________
res4b17 (Add)                   (None, 32, 32, 1024) 0           bn4b17_branch2c[0][0]            
                                                                 res4b16_relu[0][0]               
__________________________________________________________________________________________________
res4b17_relu (Activation)       (None, 32, 32, 1024) 0           res4b17[0][0]                    
__________________________________________________________________________________________________
res4b18_branch2a (Conv2D)       (None, 32, 32, 256)  262144      res4b17_relu[0][0]               
__________________________________________________________________________________________________
bn4b18_branch2a (BatchNormaliza (None, 32, 32, 256)  1024        res4b18_branch2a[0][0]           
__________________________________________________________________________________________________
res4b18_branch2a_relu (Activati (None, 32, 32, 256)  0           bn4b18_branch2a[0][0]            
__________________________________________________________________________________________________
padding4b18_branch2b (ZeroPaddi (None, 34, 34, 256)  0           res4b18_branch2a_relu[0][0]      
__________________________________________________________________________________________________
res4b18_branch2b (Conv2D)       (None, 32, 32, 256)  589824      padding4b18_branch2b[0][0]       
__________________________________________________________________________________________________
bn4b18_branch2b (BatchNormaliza (None, 32, 32, 256)  1024        res4b18_branch2b[0][0]           
__________________________________________________________________________________________________
res4b18_branch2b_relu (Activati (None, 32, 32, 256)  0           bn4b18_branch2b[0][0]            
__________________________________________________________________________________________________
res4b18_branch2c (Conv2D)       (None, 32, 32, 1024) 262144      res4b18_branch2b_relu[0][0]      
__________________________________________________________________________________________________
bn4b18_branch2c (BatchNormaliza (None, 32, 32, 1024) 4096        res4b18_branch2c[0][0]           
__________________________________________________________________________________________________
res4b18 (Add)                   (None, 32, 32, 1024) 0           bn4b18_branch2c[0][0]            
                                                                 res4b17_relu[0][0]               
__________________________________________________________________________________________________
res4b18_relu (Activation)       (None, 32, 32, 1024) 0           res4b18[0][0]                    
__________________________________________________________________________________________________
res4b19_branch2a (Conv2D)       (None, 32, 32, 256)  262144      res4b18_relu[0][0]               
__________________________________________________________________________________________________
bn4b19_branch2a (BatchNormaliza (None, 32, 32, 256)  1024        res4b19_branch2a[0][0]           
__________________________________________________________________________________________________
res4b19_branch2a_relu (Activati (None, 32, 32, 256)  0           bn4b19_branch2a[0][0]            
__________________________________________________________________________________________________
padding4b19_branch2b (ZeroPaddi (None, 34, 34, 256)  0           res4b19_branch2a_relu[0][0]      
__________________________________________________________________________________________________
res4b19_branch2b (Conv2D)       (None, 32, 32, 256)  589824      padding4b19_branch2b[0][0]       
__________________________________________________________________________________________________
bn4b19_branch2b (BatchNormaliza (None, 32, 32, 256)  1024        res4b19_branch2b[0][0]           
__________________________________________________________________________________________________
res4b19_branch2b_relu (Activati (None, 32, 32, 256)  0           bn4b19_branch2b[0][0]            
__________________________________________________________________________________________________
res4b19_branch2c (Conv2D)       (None, 32, 32, 1024) 262144      res4b19_branch2b_relu[0][0]      
__________________________________________________________________________________________________
bn4b19_branch2c (BatchNormaliza (None, 32, 32, 1024) 4096        res4b19_branch2c[0][0]           
__________________________________________________________________________________________________
res4b19 (Add)                   (None, 32, 32, 1024) 0           bn4b19_branch2c[0][0]            
                                                                 res4b18_relu[0][0]               
__________________________________________________________________________________________________
res4b19_relu (Activation)       (None, 32, 32, 1024) 0           res4b19[0][0]                    
__________________________________________________________________________________________________
res4b20_branch2a (Conv2D)       (None, 32, 32, 256)  262144      res4b19_relu[0][0]               
__________________________________________________________________________________________________
bn4b20_branch2a (BatchNormaliza (None, 32, 32, 256)  1024        res4b20_branch2a[0][0]           
__________________________________________________________________________________________________
res4b20_branch2a_relu (Activati (None, 32, 32, 256)  0           bn4b20_branch2a[0][0]            
__________________________________________________________________________________________________
padding4b20_branch2b (ZeroPaddi (None, 34, 34, 256)  0           res4b20_branch2a_relu[0][0]      
__________________________________________________________________________________________________
res4b20_branch2b (Conv2D)       (None, 32, 32, 256)  589824      padding4b20_branch2b[0][0]       
__________________________________________________________________________________________________
bn4b20_branch2b (BatchNormaliza (None, 32, 32, 256)  1024        res4b20_branch2b[0][0]           
__________________________________________________________________________________________________
res4b20_branch2b_relu (Activati (None, 32, 32, 256)  0           bn4b20_branch2b[0][0]            
__________________________________________________________________________________________________
res4b20_branch2c (Conv2D)       (None, 32, 32, 1024) 262144      res4b20_branch2b_relu[0][0]      
__________________________________________________________________________________________________
bn4b20_branch2c (BatchNormaliza (None, 32, 32, 1024) 4096        res4b20_branch2c[0][0]           
__________________________________________________________________________________________________
res4b20 (Add)                   (None, 32, 32, 1024) 0           bn4b20_branch2c[0][0]            
                                                                 res4b19_relu[0][0]               
__________________________________________________________________________________________________
res4b20_relu (Activation)       (None, 32, 32, 1024) 0           res4b20[0][0]                    
__________________________________________________________________________________________________
res4b21_branch2a (Conv2D)       (None, 32, 32, 256)  262144      res4b20_relu[0][0]               
__________________________________________________________________________________________________
bn4b21_branch2a (BatchNormaliza (None, 32, 32, 256)  1024        res4b21_branch2a[0][0]           
__________________________________________________________________________________________________
res4b21_branch2a_relu (Activati (None, 32, 32, 256)  0           bn4b21_branch2a[0][0]            
__________________________________________________________________________________________________
padding4b21_branch2b (ZeroPaddi (None, 34, 34, 256)  0           res4b21_branch2a_relu[0][0]      
__________________________________________________________________________________________________
res4b21_branch2b (Conv2D)       (None, 32, 32, 256)  589824      padding4b21_branch2b[0][0]       
__________________________________________________________________________________________________
bn4b21_branch2b (BatchNormaliza (None, 32, 32, 256)  1024        res4b21_branch2b[0][0]           
__________________________________________________________________________________________________
res4b21_branch2b_relu (Activati (None, 32, 32, 256)  0           bn4b21_branch2b[0][0]            
__________________________________________________________________________________________________
res4b21_branch2c (Conv2D)       (None, 32, 32, 1024) 262144      res4b21_branch2b_relu[0][0]      
__________________________________________________________________________________________________
bn4b21_branch2c (BatchNormaliza (None, 32, 32, 1024) 4096        res4b21_branch2c[0][0]           
__________________________________________________________________________________________________
res4b21 (Add)                   (None, 32, 32, 1024) 0           bn4b21_branch2c[0][0]            
                                                                 res4b20_relu[0][0]               
__________________________________________________________________________________________________
res4b21_relu (Activation)       (None, 32, 32, 1024) 0           res4b21[0][0]                    
__________________________________________________________________________________________________
res4b22_branch2a (Conv2D)       (None, 32, 32, 256)  262144      res4b21_relu[0][0]               
__________________________________________________________________________________________________
bn4b22_branch2a (BatchNormaliza (None, 32, 32, 256)  1024        res4b22_branch2a[0][0]           
__________________________________________________________________________________________________
res4b22_branch2a_relu (Activati (None, 32, 32, 256)  0           bn4b22_branch2a[0][0]            
__________________________________________________________________________________________________
padding4b22_branch2b (ZeroPaddi (None, 34, 34, 256)  0           res4b22_branch2a_relu[0][0]      
__________________________________________________________________________________________________
res4b22_branch2b (Conv2D)       (None, 32, 32, 256)  589824      padding4b22_branch2b[0][0]       
__________________________________________________________________________________________________
bn4b22_branch2b (BatchNormaliza (None, 32, 32, 256)  1024        res4b22_branch2b[0][0]           
__________________________________________________________________________________________________
res4b22_branch2b_relu (Activati (None, 32, 32, 256)  0           bn4b22_branch2b[0][0]            
__________________________________________________________________________________________________
res4b22_branch2c (Conv2D)       (None, 32, 32, 1024) 262144      res4b22_branch2b_relu[0][0]      
__________________________________________________________________________________________________
bn4b22_branch2c (BatchNormaliza (None, 32, 32, 1024) 4096        res4b22_branch2c[0][0]           
__________________________________________________________________________________________________
res4b22 (Add)                   (None, 32, 32, 1024) 0           bn4b22_branch2c[0][0]            
                                                                 res4b21_relu[0][0]               
__________________________________________________________________________________________________
res4b22_relu (Activation)       (None, 32, 32, 1024) 0           res4b22[0][0]                    
__________________________________________________________________________________________________
res5a_branch2a (Conv2D)         (None, 16, 16, 512)  524288      res4b22_relu[0][0]               
__________________________________________________________________________________________________
bn5a_branch2a (BatchNormalizati (None, 16, 16, 512)  2048        res5a_branch2a[0][0]             
__________________________________________________________________________________________________
res5a_branch2a_relu (Activation (None, 16, 16, 512)  0           bn5a_branch2a[0][0]              
__________________________________________________________________________________________________
padding5a_branch2b (ZeroPadding (None, 18, 18, 512)  0           res5a_branch2a_relu[0][0]        
__________________________________________________________________________________________________
res5a_branch2b (Conv2D)         (None, 16, 16, 512)  2359296     padding5a_branch2b[0][0]         
__________________________________________________________________________________________________
bn5a_branch2b (BatchNormalizati (None, 16, 16, 512)  2048        res5a_branch2b[0][0]             
__________________________________________________________________________________________________
res5a_branch2b_relu (Activation (None, 16, 16, 512)  0           bn5a_branch2b[0][0]              
__________________________________________________________________________________________________
res5a_branch2c (Conv2D)         (None, 16, 16, 2048) 1048576     res5a_branch2b_relu[0][0]        
__________________________________________________________________________________________________
res5a_branch1 (Conv2D)          (None, 16, 16, 2048) 2097152     res4b22_relu[0][0]               
__________________________________________________________________________________________________
bn5a_branch2c (BatchNormalizati (None, 16, 16, 2048) 8192        res5a_branch2c[0][0]             
__________________________________________________________________________________________________
bn5a_branch1 (BatchNormalizatio (None, 16, 16, 2048) 8192        res5a_branch1[0][0]              
__________________________________________________________________________________________________
res5a (Add)                     (None, 16, 16, 2048) 0           bn5a_branch2c[0][0]              
                                                                 bn5a_branch1[0][0]               
__________________________________________________________________________________________________
res5a_relu (Activation)         (None, 16, 16, 2048) 0           res5a[0][0]                      
__________________________________________________________________________________________________
res5b_branch2a (Conv2D)         (None, 16, 16, 512)  1048576     res5a_relu[0][0]                 
__________________________________________________________________________________________________
bn5b_branch2a (BatchNormalizati (None, 16, 16, 512)  2048        res5b_branch2a[0][0]             
__________________________________________________________________________________________________
res5b_branch2a_relu (Activation (None, 16, 16, 512)  0           bn5b_branch2a[0][0]              
__________________________________________________________________________________________________
padding5b_branch2b (ZeroPadding (None, 18, 18, 512)  0           res5b_branch2a_relu[0][0]        
__________________________________________________________________________________________________
res5b_branch2b (Conv2D)         (None, 16, 16, 512)  2359296     padding5b_branch2b[0][0]         
__________________________________________________________________________________________________
bn5b_branch2b (BatchNormalizati (None, 16, 16, 512)  2048        res5b_branch2b[0][0]             
__________________________________________________________________________________________________
res5b_branch2b_relu (Activation (None, 16, 16, 512)  0           bn5b_branch2b[0][0]              
__________________________________________________________________________________________________
res5b_branch2c (Conv2D)         (None, 16, 16, 2048) 1048576     res5b_branch2b_relu[0][0]        
__________________________________________________________________________________________________
bn5b_branch2c (BatchNormalizati (None, 16, 16, 2048) 8192        res5b_branch2c[0][0]             
__________________________________________________________________________________________________
res5b (Add)                     (None, 16, 16, 2048) 0           bn5b_branch2c[0][0]              
                                                                 res5a_relu[0][0]                 
__________________________________________________________________________________________________
res5b_relu (Activation)         (None, 16, 16, 2048) 0           res5b[0][0]                      
__________________________________________________________________________________________________
res5c_branch2a (Conv2D)         (None, 16, 16, 512)  1048576     res5b_relu[0][0]                 
__________________________________________________________________________________________________
bn5c_branch2a (BatchNormalizati (None, 16, 16, 512)  2048        res5c_branch2a[0][0]             
__________________________________________________________________________________________________
res5c_branch2a_relu (Activation (None, 16, 16, 512)  0           bn5c_branch2a[0][0]              
__________________________________________________________________________________________________
padding5c_branch2b (ZeroPadding (None, 18, 18, 512)  0           res5c_branch2a_relu[0][0]        
__________________________________________________________________________________________________
res5c_branch2b (Conv2D)         (None, 16, 16, 512)  2359296     padding5c_branch2b[0][0]         
__________________________________________________________________________________________________
bn5c_branch2b (BatchNormalizati (None, 16, 16, 512)  2048        res5c_branch2b[0][0]             
__________________________________________________________________________________________________
res5c_branch2b_relu (Activation (None, 16, 16, 512)  0           bn5c_branch2b[0][0]              
__________________________________________________________________________________________________
res5c_branch2c (Conv2D)         (None, 16, 16, 2048) 1048576     res5c_branch2b_relu[0][0]        
__________________________________________________________________________________________________
bn5c_branch2c (BatchNormalizati (None, 16, 16, 2048) 8192        res5c_branch2c[0][0]             
__________________________________________________________________________________________________
res5c (Add)                     (None, 16, 16, 2048) 0           bn5c_branch2c[0][0]              
                                                                 res5b_relu[0][0]                 
__________________________________________________________________________________________________
res5c_relu (Activation)         (None, 16, 16, 2048) 0           res5c[0][0]                      
__________________________________________________________________________________________________
dropout (Dropout)               (None, 16, 16, 2048) 0           res5c_relu[0][0]                 
__________________________________________________________________________________________________
conv2d_transpose (Conv2DTranspo (None, 32, 32, 256)  8388608     dropout[0][0]                    
__________________________________________________________________________________________________
batch_normalization (BatchNorma (None, 32, 32, 256)  1024        conv2d_transpose[0][0]           
__________________________________________________________________________________________________
re_lu (ReLU)                    (None, 32, 32, 256)  0           batch_normalization[0][0]        
__________________________________________________________________________________________________
conv2d_transpose_1 (Conv2DTrans (None, 64, 64, 128)  524288      re_lu[0][0]                      
__________________________________________________________________________________________________
batch_normalization_1 (BatchNor (None, 64, 64, 128)  512         conv2d_transpose_1[0][0]         
__________________________________________________________________________________________________
re_lu_1 (ReLU)                  (None, 64, 64, 128)  0           batch_normalization_1[0][0]      
__________________________________________________________________________________________________
conv2d_transpose_2 (Conv2DTrans (None, 128, 128, 32) 65536       re_lu_1[0][0]                    
__________________________________________________________________________________________________
batch_normalization_2 (BatchNor (None, 128, 128, 32) 128         conv2d_transpose_2[0][0]         
__________________________________________________________________________________________________
re_lu_2 (ReLU)                  (None, 128, 128, 32) 0           batch_normalization_2[0][0]      
__________________________________________________________________________________________________
conv2d (Conv2D)                 (None, 128, 128, 64) 18432       re_lu_2[0][0]                    
__________________________________________________________________________________________________
conv2d_2 (Conv2D)               (None, 128, 128, 64) 18432       re_lu_2[0][0]                    
__________________________________________________________________________________________________
conv2d_4 (Conv2D)               (None, 128, 128, 64) 18432       re_lu_2[0][0]                    
__________________________________________________________________________________________________
batch_normalization_3 (BatchNor (None, 128, 128, 64) 256         conv2d[0][0]                     
__________________________________________________________________________________________________
batch_normalization_4 (BatchNor (None, 128, 128, 64) 256         conv2d_2[0][0]                   
__________________________________________________________________________________________________
batch_normalization_5 (BatchNor (None, 128, 128, 64) 256         conv2d_4[0][0]                   
__________________________________________________________________________________________________
re_lu_3 (ReLU)                  (None, 128, 128, 64) 0           batch_normalization_3[0][0]      
__________________________________________________________________________________________________
re_lu_4 (ReLU)                  (None, 128, 128, 64) 0           batch_normalization_4[0][0]      
__________________________________________________________________________________________________
re_lu_5 (ReLU)                  (None, 128, 128, 64) 0           batch_normalization_5[0][0]      
__________________________________________________________________________________________________
conv2d_1 (Conv2D)               (None, 128, 128, 11) 715         re_lu_3[0][0]                    
__________________________________________________________________________________________________
conv2d_3 (Conv2D)               (None, 128, 128, 2)  130         re_lu_4[0][0]                    
__________________________________________________________________________________________________
conv2d_5 (Conv2D)               (None, 128, 128, 2)  130         re_lu_5[0][0]                    
__________________________________________________________________________________________________
input_2 (InputLayer)            [(None, 128, 128, 11 0                                            
__________________________________________________________________________________________________
input_3 (InputLayer)            [(None, 20, 2)]      0                                            
…
